ckpl/discriminator_40000.pth (torch, 329391 bytes, 7 tensors)

net.0.weight f4 [200, 4]
0	0x3f1c8afa	0.6114956
1	0xbe5d74c2	-0.21626571
2	0x3f1b203a	0.6059605
3	0x3ed52748	0.41631532
4	0xbebe9dd1	-0.3722978
5	0xbed39308	-0.41323113
6	0xbec2ade3	-0.3802329
7	0xbef41bbc	-0.4767741
8	0xbee82d96	-0.4534728
9	0x3f2675af	0.6502332
10	0xbf2fe65f	-0.68710893
11	0x3f337380	0.70098114
12	0x3f0d96dc	0.5530832
13	0x3f41a335	0.7563966
14	0x3f14efab	0.58178204
15	0xbfa2db68	-1.2723207
16	0x3f13fe95	0.57810336
17	0x397413c9	0.00023277024
18	0x3f140238	0.57815886
19	0xb8c5770c	-9.415866e-05
20	0x3e381779	0.17977704
21	0xbe6c4cf1	-0.23076226
22	0x3e38f272	0.18061236
23	0xbe70917b	-0.23492996
24	0x3e83a1f0	0.25709486
25	0x3f8d37ac	1.1032615
26	0x3e960dee	0.29307503
27	0x3dadc8d2	0.08485569
28	0x3f4b79bd	0.7948263
29	0xbf7e157e	-0.99251544
30	0x3f62d96a	0.88613
31	0xbf91032f	-1.1329097
32	0xbfd3c347	-1.6543969
33	0x3d544532	0.051823802
34	0x3f0b5f64	0.5444243
35	0x3ea65969	0.3249009
36	0x3ed6f9d0	0.41987467
37	0xbfc6bec9	-1.5526973
38	0x3f1342d6	0.5752386
39	0x3e8bab2f	0.2727904
40	0x3e9a513c	0.30140102
41	0x3b6761b7	0.0035306045
42	0x3e9af0b1	0.30261758
43	0xbb67f582	-0.0035394137
44	0xbee227f0	-0.44171095
45	0x3ef6c3a4	0.48196137
46	0xbede5e3b	-0.43431267
47	0x3ed498c6	0.41522807
48	0xbe51914e	-0.20465586
49	0xbe5b6da0	-0.21428537
50	0xbe59da8f	-0.2127478
51	0xbe606430	-0.21913218
52	0x3c4d1041	0.012516082
53	0xbf10f311	-0.5662089
54	0x3c9619f1	0.018322917
55	0xbf24924c	-0.6428573
56	0xbdf3198d	-0.11870108
57	0xbeb01db7	-0.3439767
58	0xbdf669c1	-0.1203189
59	0xbec894f1	-0.39176133
60	0xbcee2416	-0.029069941
61	0x3eaa3a74	0.3324772
62	0xbcbb782b	-0.022884449
63	0x3ea034b6	0.31290215
64	0xbe498a3d	-0.1968164
65	0xbe4e5ef6	-0.20153412
66	0xbe50f5f9	-0.20406331
67	0xbe555316	-0.20832476
68	0xbe8be183	-0.2732049
69	0xbe362084	-0.17785841
70	0xbe86f234	-0.2635666
71	0xbe4db227	-0.20087491
72	0x3f12ac11	0.572938
73	0xbf7d7f40	-0.99022293
74	0x3f564496	0.83698404
75	0xbe9bcabb	-0.3042811
76	0x3de836ae	0.11338554
77	0x3f867393	1.050402
78	0x3e14917b	0.14508621
79	0xbd299a7d	-0.041407097
80	0x3f2bf41d	0.6716936
81	0xbb4d3b37	-0.0031315812
82	0x3f2ca0e8	0.67433023
83	0x3d1b7db9	0.037961695
84	0x3eacaef7	0.33727238
85	0xbdf97586	-0.12180619
86	0xbf93c6d5	-1.1545054
87	0x3e067f96	0.13134608
88	0x3f849403	1.035767
89	0x3ec6882f	0.38775775
90	0xbf85ee08	-1.0463266
91	0xbe93b7ed	-0.28851262
92	0x3eed90c9	0.46399525
93	0x3a0a2c31	0.0005270867
94	0x3eed959f	0.46403214
95	0x39a2c4b2	0.00031045597
96	0xbd1adc4a	-0.03780774
97	0x3ecc42b8	0.39894652
98	0xbd00ed13	-0.03147609
99	0x3eaeecfe	0.34165186
100	0xbe189d3f	-0.14903735
101	0xbe3b807a	-0.18310729
102	0xbe133756	-0.14376578
103	0xbe33b1a6	-0.17548236
104	0x3df8cd57	0.121485405
105	0xbf171979	-0.59023243
106	0x3df8f180	0.121554375
107	0xbf33b7b3	-0.7020218
108	0x3e409a8a	0.18808952
109	0x3e20fda5	0.15721758
110	0x3e45cd2b	0.19316547
111	0x3e25898a	0.16165748
112	0xbf7a6c24	-0.9782126
113	0xbe8e6d6d	-0.2781786
114	0xbf64f014	-0.8942883
115	0xbeb9b252	-0.3626886
116	0xbe533cbe	-0.2062864
117	0x3ef5242f	0.47879168
118	0xbe596a2c	-0.21231908
119	0x3ef4baa7	0.47798654
120	0xbee64d63	-0.44980916
121	0xbdaca4c5	-0.08429865
122	0xbe9e8627	-0.30961725
123	0xbf422fc6	-0.75854146
124	0xbea0c34b	-0.31398997
125	0xbe981c14	-0.29708922
126	0xbea3fb98	-0.32027888
127	0xbea32c58	-0.3186977
128	0xbda992dc	-0.08279964
129	0xbf6a0268	-0.9140992
130	0xbd416bc0	-0.0472219
131	0x3f1479f1	0.5799857
132	0x3ea2aed8	0.3177402
133	0x3e5199e5	0.20468862
134	0x3eb6d700	0.35710907
135	0xbe508e57	-0.20366798
136	0x3edae911	0.4275594
137	0xbf10b0f0	-0.56519985
138	0x3ef87e5e	0.4853391
139	0xbf383708	-0.7195897
140	0x3f0a5b2e	0.5404538
141	0xbcb98554	-0.022646584
142	0x3f0bf665	0.54672843
143	0x3d6aeed6	0.057356678
144	0x3dd4c8ba	0.10389848
145	0xbf6e2b0b	-0.9303443
146	0x3de1b913	0.11021628
147	0x3f488c31	0.78338915
148	0xbeaa4847	-0.33258268
149	0xbf017328	-0.5056634
150	0xbeae8643	-0.3408681
151	0x3fae3ca1	1.3612252
152	0xbe967ec5	-0.29393592
153	0xbf006bbd	-0.50164396
154	0xbe97e646	-0.29667872
155	0xbf109d87	-0.5649037
156	0x3f1db3be	0.6160239
157	0x3e9324d5	0.28739038
158	0x3f1e288a	0.6178061
159	0xbe9cb424	-0.30606186
160	0x3f20352e	0.62581146
161	0xbdb20600	-0.08692551
162	0x3f1a3e1b	0.60251015
163	0xbe9388b4	-0.28815234
164	0x3f13b8aa	0.5770365
165	0xbe9a2e8f	-0.30113646
166	0x3f101f17	0.5629744
167	0x3ecf1b00	0.40450287
168	0x3fc48510	1.5353107
169	0xbf60d697	-0.8782744
170	0xbf1d38b0	-0.61414623
171	0xbf0cf42e	-0.5506009
172	0xbe0ae97a	-0.13565627
173	0x3f1d0372	0.6133338
174	0xbdecf76b	-0.11570629
175	0x3ec8b4c5	0.39200416
176	0x3f0e3c16	0.55560434
177	0x3df13648	0.117779315
178	0x3f0c22d6	0.54740655
179	0xbe0b22d5	-0.13587506
180	0xbec3d1fe	-0.3824615
181	0xbef36793	-0.47539958
182	0x3deb8601	0.115001686
183	0x3f58048d	0.84381944
184	0xbe4a65f6	-0.19765458
185	0xbe83f0af	-0.25769565
186	0xbe4e6537	-0.20155798
187	0xbe8e8abc	-0.2784022
188	0xbe29a490	-0.16566682
189	0xbdec8d99	-0.11550445
190	0xbe2d195b	-0.16904204
191	0xbde9c058	-0.1141364
192	0x3f156569	0.58357865
193	0xbcd36eef	-0.025809733
194	0x3f182e68	0.5944581
195	0x3c5a6244	0.013329092
196	0x3f2e26c5	0.6802791
197	0x3da9de65	0.082943715
198	0x3f23ea02	0.6402894
199	0xbe8fe6b4	-0.281057
200	0xbe901179	-0.2813833
201	0xbea0fa71	-0.31441072
202	0xbe9416a2	-0.28923517
203	0xbe9b3f18	-0.30321574
204	0xbea3616e	-0.3191027
205	0xbeeecb1a	-0.4663933
206	0xbea04684	-0.313038
207	0xbf067963	-0.5252897
208	0xbf0a72cd	-0.5408142
209	0xbe9e321e	-0.3089761
210	0xbf0937ec	-0.53600955
211	0xbe9f3963	-0.3109847
212	0x3e983ef9	0.29735544
213	0x3ef4b8f8	0.4779737
214	0x3e714beb	0.23564117
215	0x3ebe7ba0	0.37203693
216	0xbe81209c	-0.2522019
217	0xbe722c1a	-0.23649636
218	0xbe89889c	-0.26862037
219	0xbe7d8102	-0.24756244
220	0xbe6937af	-0.22775148
221	0xbf439355	-0.76396686
222	0xbe5d7417	-0.21626316
223	0xbf624783	-0.8839037
224	0x3e9dc8a0	0.30817127
225	0x3ebde15c	0.37085998
226	0x3ea4d0a8	0.32190442
227	0x3e99ac5f	0.3001432
228	0x3f09fbc6	0.538998
229	0x3f4082ad	0.75199395
230	0x3f133fcf	0.5751924
231	0xbf74be9c	-0.95603347
232	0x3edd2bf4	0.43197596
233	0x39baf139	0.0003565641
234	0x3edd2f58	0.43200183
235	0x3926040a	0.00015832498
236	0x3f6d0740	0.9258919
237	0xbec923f4	-0.39285243
238	0x3f6f90f9	0.93580586
239	0xbf2b7c4b	-0.6698653
240	0x3d9eb015	0.07748429
241	0xbf88b4d0	-1.068018
242	0x3d3aecc5	0.045635957
243	0x3f853f0d	1.0409867
244	0x3f167b01	0.5878144
245	0xbc4d576c	-0.01253305
246	0x3f97b2bb	1.1851419
247	0xbd958bde	-0.07302068
248	0x3f4531da	0.7702919
249	0xbdaff823	-0.0859225
250	0xbf064756	-0.524526
251	0xbdbf8c86	-0.093529746
252	0x3da5080f	0.08058178
253	0xbe18093c	-0.14847273
254	0x3dc9cb4c	0.09853229
255	0x3efcd45e	0.49380773

net.0.bias f4 [200]
0	0xbf4965d0	-0.7867098
1	0x3f2fc953	0.6866657
2	0x3e6f08da	0.2334322
3	0xbb094327	-0.0020944567
4	0xbf13ff35	-0.5781129
5	0xbd475c35	-0.04867192
6	0xbf7c92da	-0.9866158
7	0xbd5cfb68	-0.053950697
8	0xbf015251	-0.5051623
9	0xbea5fd14	-0.32419646
10	0xbe9a0f31	-0.30089715
11	0xbec216cc	-0.37908018
12	0x3f09d2eb	0.5383746
13	0x3ecb5fcb	0.39721522
14	0x3ebdfec3	0.3710843
15	0xbef976d2	-0.48723465
16	0x3f028be5	0.5099471
17	0x3ed7937f	0.42104718
18	0xbec80b69	-0.39071205
19	0xbf509355	-0.8147481
20	0xbf335197	-0.7004637
21	0x3edb5f1a	0.42845994
22	0x3d8a4b46	0.067526385
23	0xbeed4d60	-0.46348095
24	0xbf0d1ab7	-0.5511889
25	0x3ed08b1f	0.4073114
26	0x3ea91582	0.33024222
27	0xbe906f84	-0.2821008
28	0x3def02a5	0.11670426
29	0xbd763a01	-0.06011391
30	0x3f407c00	0.7518921
31	0x3f08644d	0.53278047
32	0xbda7d5d9	-0.08195085
33	0xbeef266b	-0.46708998
34	0x3d55e58e	0.052220874
35	0xbf12584c	-0.5716598
36	0xbefcc032	-0.49365383
37	0xbf249088	-0.6428304
38	0x3f2b44dd	0.6690195
39	0xbf0bfcd7	-0.5468268
40	0xbef7f854	-0.48431647
41	0xbf351547	-0.7073559
42	0x3f2a4ac8	0.6652036
43	0xbf27627e	-0.6538466
44	0xbec45c9d	-0.38351908
45	0xbeeadde0	-0.45872402
46	0x3ec44e40	0.3834095
47	0x3e798d84	0.2437039
48	0xbf1e8e03	-0.6193544
49	0xbf149b38	-0.58049345
50	0x3f3f9f74	0.7485268
51	0x3f28e4da	0.659742
52	0x3f49a879	0.78772694
53	0xbf4bf952	-0.7967731
54	0x3f205554	0.626302
55	0x3f4c0252	0.7969104
56	0xbf57a125	-0.8423026
57	0xbec003f8	-0.37503028
58	0xbedce1cc	-0.4314102
59	0xbf10dec7	-0.5658993
60	0xbeb68583	-0.35648736
61	0xbf744dac	-0.9543102
62	0x3d215b05	0.039393444
63	0xbef14d2e	-0.47129196
64	0x3dc876aa	0.097882584
65	0x3f2042d4	0.6260197
66	0xbf2964af	-0.66169256
67	0x3e32e981	0.17471887
68	0x3e50a00b	0.20373552
69	0xbf19c810	-0.60070896
70	0xbec8688e	-0.3914227
71	0x3d8857fe	0.06657408
72	0x3eee0c5b	0.464938
73	0x3f162f72	0.58666146
74	0xbe224e62	-0.15850213
75	0x3f3a758f	0.7283563
76	0x3f2c4416	0.6729139
77	0xbf2583ba	-0.64654124
78	0x3efffb4c	0.49996412
79	0xbf46160d	-0.77377397
80	0xbf28f863	-0.6600401
81	0x3e3f9b21	0.1871152
82	0x3efc8b2c	0.4932493
83	0x3f039f5a	0.51415026
84	0x3eee7cb9	0.4657953
85	0xbef93d73	-0.48679695
86	0xbf23df13	-0.6401226
87	0x3e99b1c5	0.3001844
88	0xbef10de7	-0.4708092
89	0x3e889725	0.26677814
90	0x3ecd4058	0.40088153
91	0x3f133a16	0.5751051
92	0x3ef5e7e9	0.48028496
93	0xbed68306	-0.41896838
94	0xbd9506a5	-0.07276658
95	0x3ea828d7	0.32843658
96	0xbee319cd	-0.44355622
97	0xbf1a6392	-0.6030818
98	0xbf8d4f10	-1.1039753
99	0x3e4b6694	0.19863349
100	0xbc8f01ac	-0.017456852
101	0x3e83339c	0.25625312
102	0xbf38b7be	-0.7215537
103	0xbefb161d	-0.4904031
104	0xbe9d6839	-0.30743578
105	0xbe5ec822	-0.21756032
106	0x3f0563a5	0.5210517
107	0xbef64cf7	-0.48105595
108	0x3f1e5a2a	0.6185633
109	0xbec07c41	-0.37594798
110	0x3f2a7903	0.665909
111	0x3f1a3c28	0.6024804
112	0xbf14a625	-0.58066016
113	0xbf53077e	-0.8243331
114	0xbf022658	-0.5083976
115	0xbf0b0245	-0.5430034
116	0xbeb0c4de	-0.34525198
117	0xbecc0fb2	-0.39855725
118	0x3e0b2e18	0.13591802
119	0xbe972ce7	-0.29526445
120	0x3efaa005	0.4895021
121	0x3e131b9c	0.14366001
122	0xbe6c95a4	-0.23103958
123	0xbef7bd92	-0.48386818
124	0x3ecdb868	0.40179753
125	0x3f05ae01	0.52218634
126	0xbe9c2dd0	-0.30503702
127	0x3f0e49bc	0.5558126
128	0x3d9d9dbe	0.076961026
129	0xbec195f1	-0.3780971
130	0x3c2b3366	0.010449266
131	0x3ebf2d7b	0.37339386
132	0xbeeceda5	-0.46275058
133	0x3e9fec2d	0.31234875
134	0xbf5848d4	-0.84486127
135	0xbeb05d42	-0.3444615
136	0x3ec69654	0.38786566
137	0xbfa6ff49	-1.3046657
138	0x3f5130f2	0.8171531
139	0x3ef8d672	0.4860111
140	0x3f1a4da9	0.6027475
141	0xbebb0c9d	-0.3653306
142	0x3f5374ff	0.82600397
143	0x3ed1ddca	0.40989524
144	0x3ede89a0	0.43464375
145	0xbdd322c0	-0.103093624
146	0xbf1edb93	-0.62053794
147	0xbf392255	-0.7231801
148	0xbec4e58a	-0.38456374
149	0xbef6ca7a	-0.48201352
150	0xbf29aa00	-0.66275024
151	0x3ec0fb10	0.37691545
152	0xbf89ff7b	-1.0781091
153	0x3ea9aff9	0.3314207
154	0x3eb1f46a	0.34756786
155	0xbf04a9d7	-0.51821655
156	0xbee763f0	-0.45193434
157	0xbe8db500	-0.27677155
158	0x3ee0bdb6	0.43894738
159	0x3e849808	0.2589724
160	0xbef1af77	-0.47204182
161	0xbedc4f8c	-0.4302944
162	0x3f0c9155	0.5490926
163	0x3ec5f714	0.38665068
164	0x3f2eab76	0.6823038
165	0x3e2d6c3a	0.16935816
166	0xbed4f47c	-0.41592777
167	0x3f0dc942	0.5538522
168	0xbe954320	-0.29152775
169	0x3e1b2f29	0.15154709
170	0xbe64a7e9	-0.22329678
171	0xbe801862	-0.25018603
172	0x3ee190fe	0.44055933
173	0xbeb27085	-0.3485147
174	0xbf2391b5	-0.63894206
175	0x3ec37bbe	0.38180345
176	0xbd0727a1	-0.032996777
177	0x3ea317aa	0.31853992
178	0xbe45fe6e	-0.19335338
179	0xbf5ecda5	-0.8703254
180	0xbed070b1	-0.40710977
181	0x3e872fa8	0.26403546
182	0xbeda9d4f	-0.42698142
183	0x3edd73e7	0.4325249
184	0xbde139ce	-0.109973535
185	0x3c3cf827	0.0115337735
186	0x3eeadec7	0.4587309
187	0xbea0a962	-0.3137923
188	0xbe55c701	-0.20876695
189	0xbf1bcc98	-0.6085906
190	0xbf07b248	-0.5300641
191	0xbecd414b	-0.40088877
192	0x3eb1929b	0.34682164
193	0x3ed4b094	0.41540968
194	0xbf31ea67	-0.69498295
195	0xbecaa461	-0.39578536
196	0xbf4ce03a	-0.8002964
197	0x3f41ad8c	0.75655437
198	0x3ee6b68b	0.45061144
199	0x3f51681c	0.81799483

net.3.weight f4 [200, 200]
0	0x3d7b6df4	0.061384156
1	0x3ce10a85	0.027470836
2	0x3d1c0ff4	0.03810115
3	0xbc13bf3c	-0.009017762
4	0x3bc573dd	0.006025775
5	0xbe00f13c	-0.12592024
6	0xbd56d599	-0.052449796
7	0x3b11766a	0.0022195824
8	0x3c0d5553	0.0086263
9	0x3c2510a9	0.010074773
10	0x3e5748bc	0.2102384
11	0xbe2916df	-0.16512631
12	0x3cb6004d	0.02221694
13	0x3d06c6a5	0.032904286
14	0x3cd5b1fe	0.02608585
15	0xbf362957	-0.7115683
16	0x3d88a4e8	0.06672078
17	0xbe050c19	-0.12992896
18	0x3c5e3414	0.013562221
19	0x3f474b71	0.7784949
20	0xbbc1c52c	-0.0059133973
21	0x3e47a982	0.19498256
22	0x3db83268	0.08993989
23	0xbcd6e7ea	-0.026233632
24	0x3dab06d1	0.083509095
25	0x3f6e4ce7	0.93086094
26	0x3a6d7658	0.0009058467
27	0x3ca9813a	0.020691503
28	0x3db8e3dd	0.090278365
29	0x3d80a20d	0.06280909
30	0x3bb6e528	0.005581517
31	0xbdf12406	-0.11774449
32	0xbcc01870	-0.023449153
33	0xbd8bea36	-0.068317816
34	0x3ba751ee	0.0051062023
35	0xbd4375b4	-0.047719672
36	0xbec9cb95	-0.39413133
37	0xbe1647ab	-0.14675777
38	0x3c8cf25b	0.017205408
39	0xbe2ddb82	-0.16978267
40	0xbcb5e81a	-0.022205401
41	0x3d38084e	0.044929795
42	0x3a9736e4	0.0011536744
43	0x3e76f0e0	0.24115324
44	0xbcdf5416	-0.027261775
45	0x3ca27fcb	0.019836327
46	0x3c267786	0.010160333
47	0xbe2e5d1f	-0.1702771
48	0xbc07b3c5	-0.0082826065
49	0x3c9a1e38	0.018813238
50	0x3cdc0b02	0.026860718
51	0xbb53ec5d	-0.0032336928
52	0xbdaa74c8	-0.083230555
53	0xbc294a52	-0.010332661
54	0x3d58cffa	0.052932717
55	0x3af5ff87	0.001876817
56	0x3d65c83b	0.056099158
57	0x3e26eade	0.16300532
58	0xbd33b068	-0.043869406
59	0x3cfd5775	0.030925492
60	0x3b5492d4	0.003243615
61	0x3ccb24d3	0.024797833
62	0x3e002acf	0.1251633
63	0x3db85695	0.09000889
64	0x3d0484ff	0.032353397
65	0xbdae5059	-0.08511419
66	0xbf27c79a	-0.6553894
67	0x3dc91293	0.09817996
68	0xbb6909af	-0.003555875
69	0x3d2815e9	0.04103652
70	0xbe1af31f	-0.15131806
71	0xbecffeb8	-0.40624022
72	0x3bbf71c6	0.0058424203
73	0xbeb3348f	-0.35001037
74	0xbcba19ff	-0.022717474
75	0xbde88b04	-0.1135464
76	0xbe1c275e	-0.15249392
77	0x3a093d70	0.000523529
78	0xbab0f673	-0.0013501182
79	0xbd8a4754	-0.06751886
80	0x3d4af907	0.049553897
81	0xbe338217	-0.17530094
82	0x3dd627ac	0.104567856
83	0xbd853d27	-0.065058045
84	0x3d9b7533	0.07590713
85	0xbdd0e466	-0.101998135
86	0x3d2bbaa6	0.04192605
87	0x3a50e4df	0.0007968675
88	0x3d265a3f	0.04061341
89	0x3dad63ba	0.08466287
90	0xbec994f6	-0.3937146
91	0xbd8329be	-0.06404446
92	0x3b83d42a	0.0040230947
93	0xbe21a401	-0.15785219
94	0xbf001bcb	-0.5004241
95	0x3d7c6b15	0.06162556
96	0xbe995270	-0.29945707
97	0xbf15931a	-0.58427584
98	0xbd954167	-0.07287865
99	0x3db75bd6	0.08953063
100	0xbc384ee5	-0.011249279
101	0xbce96085	-0.028488407
102	0x3c806f2d	0.015678013
103	0xbb6da111	-0.0036259333
104	0xbd02db57	-0.03194746
105	0xbe2d9b39	-0.16953744
106	0x3d96716d	0.07345853
107	0x3d42b6e8	0.047537714
108	0xbe695913	-0.22787885
109	0xbcdbd3a7	-0.026834322
110	0x3e656139	0.22400369
111	0xbc93a38c	-0.018022321
112	0xbe622c0d	-0.22087117
113	0x3d275472	0.040852018
114	0x3a55ca40	0.0008155443
115	0xbe515122	-0.20441106
116	0xbe120832	-0.14260939
117	0xbd02b3c0	-0.031909704
118	0x3e58c4f6	0.21168885
119	0x3cabe095	0.020981112
120	0x3d98a73a	0.07453771
121	0x3d07628b	0.033052962
122	0xbccd2c17	-0.025045438
123	0xbc94ba84	-0.018155344
124	0xbd22d069	-0.039749537
125	0x3cc4fefa	0.024047364
126	0xbdf43230	-0.11923635
127	0xbd862088	-0.065491736
128	0x3d328b2a	0.04358975
129	0xbcb5a5eb	-0.022173842
130	0x3e32edb7	0.17473494
131	0xbbddc786	-0.00676817
132	0xbd1aff79	-0.037841294
133	0x3cf53ad2	0.029935274
134	0xbdf869e5	-0.12129573
135	0x3bb637db	0.0055608577
136	0x3cb5c675	0.022189358
137	0xbd377865	-0.04479255
138	0xbce0d584	-0.027445562
139	0x3d0fa3de	0.035068385
140	0x3d0a4535	0.033757407
141	0xbd1541b4	-0.036439613
142	0xbc9f21cf	-0.0194253
143	0x3b0d9dac	0.0021608872
144	0xbd379ae2	-0.044825442
145	0xbcac220f	-0.021012334
146	0xbe1d1eac	-0.15343732
147	0x3e4d524f	0.2005093
148	0x3dda6000	0.10662842
149	0x3a640ae4	0.00086991326
150	0x3bb5c178	0.005546745
151	0xbe029db7	-0.12755476
152	0x3e2cc494	0.16871864
153	0x3ea5fcd4	0.32419455
154	0xbcc40536	-0.023928266
155	0x3cd2188a	0.025646467
156	0x3cb3b9a5	0.021939108
157	0xbc071ec8	-0.008247085
158	0x3d3a6e62	0.045515426
159	0x3d8f36d1	0.06992877
160	0x3b63d385	0.0034763527
161	0xbdd7d177	-0.10537999
162	0xbbcef291	-0.0063155373
163	0x3ad2e90c	0.0016091182
164	0xbc101722	-0.008794578
165	0x3e4f33b5	0.20234568
166	0xbdd2ca6c	-0.10292515
167	0xb9c25e79	-0.0003707295
168	0x3c0cd33b	0.008595283
169	0xbd7b050e	-0.061284117
170	0x3c7a0f5e	0.015262453
171	0x3cfda3b9	0.030961858
172	0x3e84bc88	0.25925088
173	0x3ceb46a9	0.028720217
174	0x3d08e686	0.03342297
175	0xbd091135	-0.033463676
176	0x3c8ab4a9	0.016931849
177	0xbc94293d	-0.01808607
178	0xbe4d9cd9	-0.20079364
179	0x3d5ad9b1	0.053430263
180	0xbd70b644	-0.058767572
181	0xbc9d242d	-0.019182289
182	0x3d6ab50a	0.05730156
183	0x3b29f760	0.00259348
184	0xbd041d15	-0.032254297
185	0x3c81d3a2	0.015847985
186	0xbd195de4	-0.037443057
187	0xbe936114	-0.28785002
188	0xbe9ae25e	-0.3025083
189	0xbc758879	-0.014986151
190	0x3c350fae	0.011051102
191	0xbd2edb2e	-0.042689495
192	0x3e2e3537	0.17012487
193	0x3ac5ad3a	0.0015081533
194	0xbec13ec2	-0.37743193
195	0x3d549553	0.05190022
196	0xbca8c794	-0.020602979
197	0xbeea609a	-0.45776826
198	0xbe22b79c	-0.15890354
199	0xbe292a9d	-0.16520162
200	0x3dc42bc2	0.09578659
201	0x3e0eed30	0.13957667
202	0x3c7e8130	0.01553373
203	0xbb961e2b	-0.004581233
204	0x3e66ff4b	0.22558324
205	0x3ef31105	0.47473922
206	0x3dbfb038	0.09359783
207	0xbd800d6c	-0.0625256
208	0xbd4adf88	-0.049529582
209	0xbd31b39c	-0.04338418
210	0x3ed43ea8	0.41454053
211	0xbda593ab	-0.08084806
212	0xbe3b7fff	-0.18310545
213	0x3bad8b33	0.005296135
214	0x3d414f0e	0.047194533
215	0x3f136c5f	0.57587236
216	0xbe303d2c	-0.17210835
217	0x3e310882	0.17288402
218	0x3bf4a9f5	0.0074665495
219	0x3ddc51da	0.107577994
220	0x3df4ee01	0.11959458
221	0x3e9f4fde	0.3111562
222	0x3e950036	0.29101723
223	0x3e8870e8	0.2664864
224	0xbe1ef7a0	-0.15524149
225	0xbec15f4d	-0.3776802
226	0x3b2e9720	0.002664037
227	0x3dbe870a	0.093031004
228	0x3d0cb734	0.034354404
229	0x3cf0b056	0.029380959
230	0xbd5473b9	-0.051868174
231	0x3d990d95	0.07473294
232	0xbcd94496	-0.026521962
233	0x3eab1279	0.3341253
234	0xbd81cab6	-0.06337492
235	0x3e50f5bb	0.20406239
236	0x3f63c537	0.889728
237	0x3e314977	0.17313181
238	0x3d3451c6	0.044023298
239	0x3e12b982	0.14328578
240	0xbde9b3fc	-0.114112824
241	0x3e0aaccb	0.13542478
242	0x3bee8b94	0.0072798226
243	0xbe8a1d7a	-0.26975614
244	0x3b95267d	0.0045517073
245	0xbdaf8f37	-0.08572238
246	0x3df83a7f	0.12120532
247	0xbe874fb5	-0.26428
248	0xbc776230	-0.015099093
249	0xbd6733b7	-0.056445803
250	0xbd2b6148	-0.04184082
251	0x3d898720	0.06715226
252	0x3e2aefc0	0.1669302
253	0x3d71ee2f	0.05906504
254	0xbd45f9e5	-0.04833402
255	0x3cb2b1dd	0.021813327

net.3.bias f4 [200]
0	0xbe826dce	-0.254744
1	0x3e4c7744	0.19967371
2	0xbe5eb42d	-0.21748419
3	0xbc1b05dd	-0.009461847
4	0x3ea46138	0.32105422
5	0x3e2837b4	0.16427499
6	0xbe7190e0	-0.23590422
7	0xbe974557	-0.2954509
8	0xbbc0a336	-0.0058788313
9	0xbda068d1	-0.07832492
10	0x3e33aed6	0.17547163
11	0xbd8571e5	-0.06515864
12	0xbbd7fa25	-0.006591099
13	0xbd994200	-0.074832916
14	0x3e858e93	0.26085338
15	0xbddafdb5	-0.10692922
16	0xbd9ed657	-0.07755726
17	0xbe94591c	-0.28974235
18	0x3d7c9dd5	0.061673958
19	0xbe53e9bd	-0.20694633
20	0x3ec0e89b	0.37677464
21	0xbdec2d7e	-0.115321144
22	0xbe3bea0d	-0.18351002
23	0x3d9f6a1a	0.07783909
24	0x3dc43e51	0.095821984
25	0xbe2a70c1	-0.16644575
26	0x3c12d8e9	0.008962848
27	0x3e8061a7	0.25074503
28	0x3e745130	0.23859096
29	0x3d2b8673	0.041876268
30	0xbe158f41	-0.14605428
31	0x3e75b26f	0.23993848
32	0x3c8918a3	0.01673538
33	0xbd310c22	-0.04322446
34	0xbdc59de0	-0.09649253
35	0xbe498f8f	-0.1968367
36	0xbe183e14	-0.14867431
37	0xbdf7cf34	-0.12100068
38	0xbe631efe	-0.22179791
39	0x3e21828d	0.15772457
40	0xbabfc805	-0.0014631754
41	0x3e4c8cd6	0.199756
42	0xbdde2d6a	-0.10848506
43	0x3da8a3ef	0.08234393
44	0xbe1104b2	-0.14161947
45	0xbe6d37ba	-0.23165789
46	0x3de303cf	0.11084711
47	0xbe6c8283	-0.23096661
48	0xbe9a0eaf	-0.30089328
49	0x3e8c67c2	0.2742291
50	0xbe1dcdb0	-0.15410495
51	0x3e48c90c	0.19607943
52	0xbe4cf085	-0.20013626
53	0xbd29b2c5	-0.041430254
54	0xbda2a5f4	-0.07941809
55	0x3bc12106	0.0058938293
56	0xbe90845b	-0.2822598
57	0xbc2335df	-0.009961574
58	0x3e02e0ce	0.12781069
59	0xbeb1953b	-0.34684166
60	0xbe53f1bc	-0.20697683
61	0xbe5bcd8e	-0.21465132
62	0x3db0dc37	0.08635753
63	0xbe0ff6a8	-0.14058936
64	0xbd41793f	-0.04723477
65	0xbeb443e5	-0.3520805
66	0x3edb7860	0.42865276
67	0xbbe1c469	-0.006889869
68	0x3dd2ed51	0.10299171
69	0xbd648837	-0.055793967
70	0xbda102d3	-0.07861867
71	0xbe898534	-0.26859438
72	0xbdc1b8b4	-0.094590575
73	0xbd829e3b	-0.06377836
74	0xbd3c2730	-0.04593581
75	0xbdbb825b	-0.09155723
76	0xbe710a2e	-0.2353904
77	0xbe8f1bf2	-0.27951008
78	0xbd0b39e8	-0.03399077
79	0xbda704eb	-0.08155235
80	0xbe0a45d4	-0.135032
81	0xbe6df94e	-0.23239633
82	0x3e1cb217	0.15302311
83	0x3d9db029	0.076996155
84	0x3e188952	0.14896134
85	0x3cbe51d9	0.023232387
86	0xbdf36d1c	-0.11886045
87	0xbe83efb9	-0.2576883
88	0xbe7ed69c	-0.24886554
89	0xbcc82bc4	-0.024434932
90	0xbddfa9a4	-0.10921028
91	0x3e28e1e2	0.16492417
92	0xbe904e2a	-0.28184634
93	0xbd71ecad	-0.059063602
94	0xbde446e3	-0.11146333
95	0xbe100727	-0.14065228
96	0xbe2d9d16	-0.16954455
97	0xbe0ec247	-0.13941298
98	0xbe870cbc	-0.26376903
99	0x3dbe55db	0.092937194
100	0xbe09db4e	-0.13462564
101	0xbe2b612a	-0.16736284
102	0xbea30a85	-0.31843963
103	0x3e6ab4e7	0.22920571
104	0xbcc4bed1	-0.02401677
105	0xbde851aa	-0.11343701
106	0xbdfd0a5e	-0.12355493
107	0xbe3b17d2	-0.18270805
108	0x3b3266ed	0.0027221993
109	0xbe330cd3	-0.17485361
110	0xbe20fda1	-0.15721752
111	0xbe632ae7	-0.22184335
112	0xbe7f80be	-0.24951455
113	0xbda8038c	-0.082038015
114	0xbe053d71	-0.1301172
115	0x3d0da414	0.034580305
116	0xbdfdc274	-0.123906046
117	0xbe81c196	-0.25343007
118	0xbe76d464	-0.24104458
119	0x3db5e0ac	0.088807434
120	0x3db1c91c	0.08680937
121	0xbdc30799	-0.095229335
122	0x3e10f8f4	0.14157468
123	0xbdf94af8	-0.12172502
124	0x3cf3ffa6	0.029784989
125	0x3de643e5	0.112434186
126	0xbe7098fc	-0.23495859
127	0xbd49e433	-0.049289893
128	0xbe53c33a	-0.20679942
129	0xbe164581	-0.14674951
130	0x3e00e314	0.12586623
131	0x3cd331c8	0.025780573
132	0x3e0a279b	0.13491671
133	0xbe36d762	-0.178556
134	0xbe77343b	-0.24141018
135	0xbdb74bc6	-0.089499995
136	0xbe924093	-0.2856489
137	0x3ca879a2	0.020565812
138	0xbde58543	-0.11207058
139	0xbd8efed8	-0.06982201
140	0xbd9f035b	-0.07764312
141	0x3f0073e3	0.5017683
142	0xbe2a020b	-0.16602342
143	0xbdd438e5	-0.10362414
144	0xbe77a989	-0.24185766
145	0x3cdb062e	0.026736345
146	0xbe816a22	-0.25276285
147	0xbda45184	-0.0802336
148	0x3d8d0fc1	0.068877704
149	0xbce045a3	-0.027376955
150	0xbe52b0c6	-0.20575246
151	0x3d863b23	0.06554248
152	0xbbf6bffb	-0.00753021
153	0xbe18298b	-0.14859597
154	0xbdb6a94f	-0.08919012
155	0x3da6eec1	0.081510074
156	0x3e842d87	0.25815985
157	0xbdb674ce	-0.089089975
158	0xbc3cfa60	-0.011534303
159	0xbdbea30a	-0.09308441
160	0xbe0c89de	-0.13724467
161	0xbc607575	-0.013699879
162	0xbccc7efe	-0.024962898
163	0xbd514864	-0.051094428
164	0x3cf0e455	0.029405752
165	0xbeb2fa75	-0.3495671
166	0xbcd0457b	-0.025423756
167	0xbe144cb3	-0.14482383
168	0xbe64d96d	-0.22348566
169	0xbde9e6bc	-0.11420962
170	0x3e0bb3bd	0.13642783
171	0xbe132736	-0.14370427
172	0xbde555ed	-0.1119803
173	0x3df6fd89	0.12060077
174	0xbe07c59f	-0.1325898
175	0xbd705e08	-0.058683425
176	0xbdf62dc1	-0.120204456
177	0xbe2422fe	-0.16028973
178	0xbe6e5d2e	-0.23277733
179	0xbe3152e6	-0.1731678
180	0x3eaf6208	0.3425448
181	0x3de8c306	0.11365323
182	0xbd4f0476	-0.050541364
183	0x3d6e01ff	0.058107372
184	0xbd76990c	-0.06020455
185	0xbe8bb456	-0.27286023
186	0x3eb315bc	0.3497752
187	0x3d7a72dc	0.061144695
188	0xbe699182	-0.22809413
189	0xbe7b0b0a	-0.2451593
190	0xbdf0183c	-0.11723372
191	0xbddfaaf2	-0.10921277
192	0xbdc2b974	-0.095080286
193	0x3e44b1d7	0.19208466
194	0xbd424abe	-0.04743456
195	0xbea350c6	-0.31897563
196	0xbe68048a	-0.22657982
197	0xbe66ed5a	-0.2255148
198	0xbdb012ee	-0.085973606
199	0xbe115631	-0.14193036

net.6.weight f4 [200, 200]
0	0x3d031545	0.032002706
1	0xbcb9ccd5	-0.02268068
2	0xbd349881	-0.04409075
3	0xbe0beeab	-0.13665263
4	0xbe16c66d	-0.14724131
5	0xbd9e4374	-0.077277094
6	0x3e5377c8	0.20651162
7	0x3d7a5554	0.06111653
8	0xbd9132b4	-0.07089749
9	0x3c952779	0.018207299
10	0xbd3811c1	-0.044938806
11	0x3e6108ff	0.21976088
12	0xbd12a72c	-0.03580396
13	0x3e91b6ab	0.28459677
14	0xbdff0d63	-0.12453725
15	0x3daca23f	0.084293835
16	0x3d0f8cc7	0.035046365
17	0x3cd07961	0.025448503
18	0xbe18bb42	-0.14915183
19	0x3c8f4a55	0.017491499
20	0xbc5d9f72	-0.013526784
21	0xbc6734b7	-0.014111689
22	0xbd8a86f2	-0.0676402
23	0x3d095967	0.033532526
24	0x3da32862	0.07966687
25	0x3dd500dc	0.104005545
26	0x3d247319	0.04014883
27	0xbe1df0cd	-0.1542389
28	0xbd394c64	-0.045238867
29	0xbd04b652	-0.032400437
30	0x3e1b9c69	0.15196384
31	0x3c97f4f2	0.018549416
32	0x3c36098e	0.011110676
33	0xbcce3629	-0.02517231
34	0x3e6df695	0.23238595
35	0x3db501fd	0.0883827
36	0x3de32827	0.11091643
37	0x3daf20b4	0.085511595
38	0xbd00e2c2	-0.031466253
39	0x3c9fc019	0.019500779
40	0xbc8f438f	-0.01748827
41	0x3d4ec1a2	0.05047763
42	0xbcd82f2f	-0.026389686
43	0xbc85d250	-0.016335636
44	0xbbbf508f	-0.0058384608
45	0xbb66bf67	-0.00352093
46	0xbcb8fd2c	-0.02258166
47	0x3de14b85	0.11000732
48	0x3e0f6bbf	0.14005946
49	0x39e6d14d	0.0004402496
50	0x3cddf535	0.027094463
51	0xbddb5215	-0.10709015
52	0x3d14e0b6	0.036347114
53	0xbde8dfdd	-0.113708235
54	0x3ed1fe29	0.4101422
55	0xbe3698cb	-0.17831723
56	0x3d3706c3	0.044684183
57	0x3e05015c	0.129888
58	0x3d325d29	0.043545876
59	0x3d83dd5f	0.064387076
60	0xbdcae830	-0.099075675
61	0x3e777daf	0.24169038
62	0xbd1eac29	-0.038738403
63	0x3d29a85c	0.041420326
64	0x3e2f7a59	0.17136516
65	0xbc1be392	-0.009514706
66	0xbe0fd278	-0.14045131
67	0x3a954bba	0.0011390366
68	0x3cdb48f8	0.026768193
69	0xbd9c98d9	-0.07646341
70	0xbe9bfb33	-0.30465087
71	0x3d123a6c	0.035700247
72	0xbc70a49b	-0.0146876825
73	0xbce627ca	-0.028095145
74	0x3e001524	0.12508065
75	0x3c73ba36	0.014875939
76	0x3dddb630	0.10825765
77	0x3ccf89a2	0.025334183
78	0xbd07eef3	-0.033186864
79	0x3bd28202	0.0064241895
80	0x3ce6b97c	0.028164618
81	0x3d94f74f	0.07273733
82	0x3dfcbbec	0.12340531
83	0x3d5b9c4c	0.053615853
84	0xbd078b7c	-0.033092007
85	0xbd2f714b	-0.042832654
86	0x3dca59ce	0.0988041
87	0x3de3fd8f	0.11132347
88	0x3d1beb48	0.03806618
89	0xbe2a3d97	-0.16625057
90	0x3e86e861	0.26349166
91	0x3d675f6e	0.056487493
92	0xbc9f4c90	-0.019445688
93	0xbe25e19c	-0.16199344
94	0x3d3aaff8	0.045577973
95	0x3dea1e80	0.11431599
96	0x3e3b2d40	0.1827898
97	0x3d1479d6	0.036249004
98	0xbcf11f6a	-0.029433925
99	0x3d3f7309	0.046740565
100	0xbe2a4d5d	-0.16631074
101	0x3d82f9bb	0.063952886
102	0x3dc46a48	0.09590584
103	0xbca4a541	-0.02009833
104	0x3e51f2eb	0.20502822
105	0x3de9476a	0.11390574
106	0x3d22447b	0.03961609
107	0x3d0f06f7	0.03491875
108	0x3d971306	0.07376675
109	0x3c5c07f7	0.013429633
110	0xbd58c846	-0.05292537
111	0x3d88b82c	0.06675753
112	0x3cfb7e00	0.03069973
113	0xbd198010	-0.037475646
114	0x3cadf3dc	0.021234445
115	0x3df6eac1	0.120564945
116	0x3da5f3b5	0.08103124
117	0x3e0a0515	0.13478501
118	0x3df92805	0.12165836
119	0xbdca42d0	-0.09876025
120	0x3d317424	0.04332365
121	0x3e0c7e8c	0.13720149
122	0x3d78e88b	0.060768645
123	0x3e61e6ca	0.22060695
124	0xbe0f7b01	-0.14011766
125	0x3cbaa460	0.022783458
126	0x3d73e1b2	0.05954141
127	0x3e725df8	0.23668659
128	0x3d6cc066	0.057800673
129	0x3dcf88cb	0.10133513
130	0x3e57c8da	0.21072713
131	0xbe0729ab	-0.13199489
132	0x3ca0d680	0.019633532
133	0x3e1bfec2	0.15233901
134	0x3e1ba4c5	0.15199573
135	0x3e62881d	0.22122236
136	0xbd20ec83	-0.039288055
137	0xbe0bf2e9	-0.13666882
138	0x3eb7a81d	0.35870448
139	0x3cbc0bed	0.022954905
140	0x3e5ec851	0.21756102
141	0xbd9cdde9	-0.076595135
142	0x3bdada91	0.006678887
143	0x3d49abf8	0.049236268
144	0xbd8531d0	-0.065036416
145	0x3e250c8e	0.1611807
146	0x3d221e70	0.03957981
147	0xbda16cde	-0.07882093
148	0xbde07890	-0.109604955
149	0xbd5d2d0c	-0.05399804
150	0x3dbab572	0.09116639
151	0xbdc68007	-0.09692388
152	0xbcf0375f	-0.029323278
153	0xbcc0107d	-0.023445362
154	0xbb25e733	-0.0025314807
155	0xbe3eb8ad	-0.18625136
156	0xbbc89401	-0.006121159
157	0x3e203c1a	0.15647927
158	0xbdcc0586	-0.09961991
159	0x3ce28b5d	0.027654344
160	0x3d9d69f5	0.07686225
161	0x3d71b80f	0.059013423
162	0x3e7be421	0.24598743
163	0x3e088df2	0.13335398
164	0xbd870d26	-0.06594305
165	0xbd8f68db	-0.070024215
166	0x3ce55297	0.027993483
167	0xbb1b9968	-0.002374256
168	0x3ecd1910	0.40058184
169	0xbd821669	-0.06351931
170	0xbd4bd63e	-0.049764864
171	0xbd9eeea8	-0.07760364
172	0x3d9ced13	0.07662406
173	0xbd979bc9	-0.074027605
174	0x3e314e87	0.17315112
175	0xbd484047	-0.048889425
176	0xbd5d2b61	-0.053996447
177	0x3df2763c	0.11838958
178	0xbe0cc900	-0.1374855
179	0x3e09da64	0.13462216
180	0xbde5315c	-0.11191055
181	0xbcdd5827	-0.027019573
182	0x3e1f6772	0.15566805
183	0xbd67201a	-0.0564271
184	0xbbebcfde	-0.0071964106
185	0x3cb77173	0.022392964
186	0x3ca39f12	0.019973312
187	0xbc9e0e89	-0.01929404
188	0x3c8c4ce0	0.0171265
189	0xbd5c415a	-0.05377326
190	0x3caba4fc	0.020952694
191	0xbd0d0152	-0.034425087
192	0x3cad9180	0.021187544
193	0x3be6bb9a	0.007041407
194	0xbc1bf018	-0.009517692
195	0x3cdf3746	0.027248036
196	0xbcd3a06e	-0.025833335
197	0xbcdf62db	-0.027268818
198	0x3d8447bd	0.064589955
199	0x3c088b56	0.0083340015
200	0x3de0f1b1	0.10983599
201	0xbd408b80	-0.047008038
202	0x3d52e1cd	0.05148487
203	0xbd1c3461	-0.03813589
204	0xbdd0e63e	-0.10200165
205	0xbd40c515	-0.047062952
206	0x3d4efed6	0.050536
207	0x3dd05d2d	0.10174022
208	0xbe056416	-0.13026461
209	0x3c222f85	0.009899025
210	0xbcdd3d9a	-0.027006913
211	0x3e1c1ef2	0.1524618
212	0xbcd1c030	-0.025604337
213	0x3e57a994	0.21060783
214	0xbdb92125	-0.09039525
215	0x3d69e527	0.057103302
216	0xbe12c3ed	-0.14332552
217	0x3e58794e	0.21140024
218	0xbe18acfb	-0.14909737
219	0x3d80690c	0.06270036
220	0xbcf23538	-0.029566392
221	0xbe2c37ea	-0.16818205
222	0xbc42f11a	-0.011898303
223	0x3d97ac5e	0.07405923
224	0x3d98b5bc	0.07456538
225	0x3d1c7d75	0.038205583
226	0xbd628fc6	-0.055312894
227	0xbd149aaa	-0.03628031
228	0x3d33a15b	0.043855052
229	0x3cc4dce5	0.024031112
230	0x3de54d2c	0.1119636
231	0x3ceaa2b1	0.02864203
232	0x3d4c565b	0.049887042
233	0xbe05110a	-0.12994781
234	0x3e7f1957	0.2491201
235	0x3da442a6	0.08020525
236	0xbc5127d4	-0.012765843
237	0x3ddb7fbb	0.10717722
238	0xbe24831a	-0.16065636
239	0xbc97da08	-0.018536583
240	0x3c9dbe2e	0.019255724
241	0x3aeeb632	0.0018212257
242	0xbd965d77	-0.07342046
243	0xbd0be17e	-0.034150593
244	0x3d889251	0.06668533
245	0x3da42eff	0.08016776
246	0xbb0df8a2	-0.002166309
247	0x3de6c308	0.11267668
248	0x3da53b30	0.0806793
249	0xbc0c10aa	-0.008548895
250	0x3c107227	0.008816279
251	0xbe22d4b2	-0.1590145
252	0x3b436a47	0.0029817985
253	0xbe63a044	-0.22229105
254	0x3ebdc559	0.37064627
255	0xbe174d84	-0.14775664

net.6.bias f4 [200]
0	0xbd96d6d1	-0.07365192
1	0xbdd364de	-0.10321973
2	0xbdef9d4f	-0.11699926
3	0xbd70b351	-0.05876476
4	0xbddbe691	-0.107373364
5	0xbdfe2fd1	-0.12411464
6	0x3e1d8a6d	0.15384836
7	0xbd7a9732	-0.061179347
8	0xbd9da070	-0.07696617
9	0xbe93dd4a	-0.28879768
10	0xbdd2a761	-0.10285831
11	0xbe773c4f	-0.241441
12	0x3d5c7e16	0.053831182
13	0xbe55b393	-0.20869283
14	0xbe1819e2	-0.14853624
15	0xbdf3b697	-0.119000606
16	0xbdcb69f4	-0.09932318
17	0xbdecdc91	-0.11565507
18	0xbda9cc29	-0.082908936
19	0xbd86b8d0	-0.06578219
20	0xbba3bf2b	-0.004997154
21	0xbd50dbab	-0.05099074
22	0xbe452526	-0.19252452
23	0xbd7d4ac4	-0.06183888
24	0xbea78163	-0.32715902
25	0xbe2af08c	-0.16693324
26	0xbd5d515c	-0.05403267
27	0xbcaa8e73	-0.020819878
28	0xbd896a65	-0.06709746
29	0x3b3c06be	0.0028690542
30	0xbdcfbe29	-0.10143692
31	0xbd375126	-0.044755124
32	0xbdbbf060	-0.09176707
33	0xbe028cc4	-0.1274901
34	0xbdba4cd4	-0.09096685
35	0x3dac063d	0.08399627
36	0xbd9b59c2	-0.07585479
37	0xbdf9cd20	-0.121973276
38	0xbd832707	-0.06403928
39	0xbeb10ecb	-0.345816
40	0xbebcea4f	-0.36897513
41	0xbe2e21db	-0.17005102
42	0xbdde7b35	-0.108633436
43	0xbdb22d1b	-0.087000094
44	0xbd9a6d92	-0.0754043
45	0xbdf9ee70	-0.122036815
46	0xbbd0ab4d	-0.006368077
47	0xbd50c0fd	-0.050965298
48	0xbdf06bd9	-0.1173932
49	0x3c34025a	0.010986889
50	0xbe1cd946	-0.15317258
51	0x3e033fae	0.1281726
52	0xbd80f175	-0.06296054
53	0xbde662eb	-0.11249336
54	0xbdff69b9	-0.12471337
55	0xbe6b5596	-0.22981867
56	0xbe81addd	-0.2532796
57	0xbd13faac	-0.03612773
58	0x3e078f0c	0.13238162
59	0xbd19f464	-0.037586585
60	0xbe3a7ad4	-0.18210918
61	0x3c1d39e2	0.00959632
62	0x3d845239	0.06460995
63	0xbd7147cf	-0.058906373
64	0xbede16e4	-0.4337684
65	0xbe48977d	-0.19589038
66	0xbe214650	-0.15749478
67	0xbd85f876	-0.06541531
68	0xbdfbecbe	-0.12301014
69	0xbe9e0d5b	-0.30869564
70	0xbdfd3d09	-0.12365157
71	0xbd38db81	-0.04513121
72	0xbdb2b1c2	-0.08725311
73	0xbe4248b8	-0.18973053
74	0xbe40dc62	-0.1883407
75	0xbe790f1d	-0.24322172
76	0xbe4f03db	-0.20216314
77	0xbe0a4726	-0.13503703
78	0xbd429f69	-0.047515307
79	0xbe05ccb9	-0.13066377
80	0xbd955080	-0.07290745
81	0x3c642687	0.013925201
82	0xbdaad4f1	-0.083413966
83	0xbdd612aa	-0.10452779
84	0xbe6945cd	-0.22780533
85	0xbe13e3ad	-0.1444232
86	0xbd5b76be	-0.05358004
87	0xbe40a5b7	-0.18813215
88	0x3eefa565	0.46805874
89	0xbe2c4762	-0.16824105
90	0xbdbc481e	-0.09193443
91	0xbe777579	-0.24165906
92	0x3d52abff	0.05143356
93	0xbdfb6690	-0.122754216
94	0xbdd63f27	-0.10461264
95	0xbe5e6fc8	-0.21722329
96	0xbe242099	-0.1602806
97	0xbe4304a2	-0.19044736
98	0xbdb2e31e	-0.087347254
99	0xbdeace31	-0.11465109
100	0xbe1426c1	-0.14467908
101	0xbd663f2e	-0.056212597
102	0xbe55f400	-0.2089386
103	0xbd905eca	-0.070493296
104	0x3eaa4f09	0.33263424
105	0xbd5644c2	-0.052311666
106	0xbe85a5ec	-0.2610315
107	0xbda5cd48	-0.08095795
108	0xbd51efe6	-0.051254176
109	0xbd795af5	-0.06087776
110	0xbaeb0e9c	-0.0017933431
111	0xbe091c41	-0.13389684
112	0xbe01d6b5	-0.1267956
113	0x3ef5d6f8	0.4801557
114	0xbdb30b03	-0.08742335
115	0xbe1e725e	-0.15473315
116	0xbe3117c8	-0.17294228
117	0xbddb9d79	-0.10723395
118	0xbd805dda	-0.06267901
119	0xbe3ffc6e	-0.18748638
120	0xbe2864a1	-0.16444637
121	0xbe84f2a1	-0.2596636
122	0xbded5ec0	-0.11590338
123	0xbde84b2e	-0.113424644
124	0xbd8fcc1b	-0.07021352
125	0xbd9a9e7d	-0.075497605
126	0x3e1bd480	0.15217781
127	0xbe2b44ab	-0.16725414
128	0xbd1ae2b9	-0.037813876
129	0xbe08295d	-0.13297029
130	0xbd5cce5a	-0.05390773
131	0xbe9d7dd3	-0.3076006
132	0xbe6aef4c	-0.22942847
133	0x3ec8dfa2	0.39233118
134	0xbe42e5d3	-0.19032983
135	0xbe1b872c	-0.15188283
136	0xbdab8b0b	-0.0837613
137	0xbdef9f07	-0.11700254
138	0xbe2d1194	-0.16901237
139	0xbdc216a0	-0.094769716
140	0xbdd04d0a	-0.10170944
141	0xbea6149d	-0.32437602
142	0xbdb23c3b	-0.08702894
143	0x3f06e5ed	0.5269459
144	0x3d021682	0.031759746
145	0xbdd1fb81	-0.10253049
146	0xbde315e4	-0.1108816
147	0xbd787f7d	-0.060668457
148	0xbd15c5aa	-0.03656546
149	0xbe76a09f	-0.2408471
150	0xbe049eb2	-0.12951162
151	0xbe5f4b29	-0.21806015
152	0xbddf08fd	-0.10890386
153	0x3d86d16d	0.065829135
154	0xbdadf86c	-0.08494648
155	0xbe21cb8d	-0.15800305
156	0x3e308fd8	0.17242372
157	0x3db992a0	0.090611696
158	0xbe05459c	-0.13014835
159	0x3de0da92	0.10979189
160	0xbe0bcebb	-0.1365308
161	0x3f06d065	0.52661735
162	0xbdc66de8	-0.09688932
163	0xbdc3b0e8	-0.095552266
164	0x3ad46c8e	0.0016206668
165	0xbdae799f	-0.08519291
166	0xbe386098	-0.18005598
167	0xbdef0db6	-0.11672537
168	0xbe327419	-0.174271
169	0x3eec9ba5	0.46212497
170	0xbe75e482	-0.2401295
171	0x3cb7824e	0.022401001
172	0xbdb09f77	-0.086241655
173	0xbe552e3b	-0.20818417
174	0xbd4f8954	-0.050668076
175	0xbe15f3ef	-0.14643835
176	0xbecfd93b	-0.4059542
177	0xbdd6180f	-0.104538076
178	0xbdbbb90a	-0.09166153
179	0xbe704113	-0.23462324
180	0xbe9eaafd	-0.3098983
181	0xbd63eba2	-0.05564464
182	0xbe54be51	-0.20775725
183	0xbd97ceec	-0.07412514
184	0xbd16e2ce	-0.03683739
185	0xbcb23445	-0.02175344
186	0xbe0ff21d	-0.14057203
187	0xbe1170c9	-0.1420318
188	0xbdbb5b86	-0.09148316
189	0xbf17b271	-0.59256655
190	0xbe2722b7	-0.16321836
191	0xbd6f4bd5	-0.05842193
192	0x3dab8ce4	0.08376482
193	0xbd080ef8	-0.0332174
194	0xbe884628	-0.26616025
195	0xbe11a0fc	-0.14221567
196	0xbd2882a2	-0.041140206
197	0xbd9cb242	-0.076511875
198	0xbe1c5d30	-0.15269923
199	0xbdc6bd15	-0.09704033

net.9.weight f4 [1, 200]
0	0x3c9221e0	0.017838418
1	0x3c4b9252	0.012425022
2	0x3d1b1f8d	0.037871886
3	0x3c823365	0.015893647
4	0x3c12536e	0.008931024
5	0x3c4a6fa7	0.012355722
6	0x3ca56f8d	0.020194793
7	0x3abc3848	0.0014360035
8	0x3ca4ebc1	0.020131947
9	0xbd36f41b	-0.04466639
10	0x3c49fc45	0.012328212
11	0x3cc9736b	0.024591168
12	0x3c85f994	0.01635436
13	0xbc3b1f86	-0.01142109
14	0x3c5cea39	0.013483577
15	0x3c2b6ffa	0.010463709
16	0x3c172dab	0.009227197
17	0x3db977ad	0.090560295
18	0xbb553ae4	-0.0032536322
19	0x3c6aa43d	0.014321384
20	0x3c62aef0	0.013835654
21	0xba1718cf	-0.00057638896
22	0xbbad28e8	-0.0052844174
23	0x3c910bf2	0.017705891
24	0x3c384d19	0.01124885
25	0xbd12f009	-0.035873447
26	0xbb290096	-0.0025787703
27	0x3c5a1b56	0.013312181
28	0x3c7e8568	0.015534736
29	0x3c379ea7	0.011207259
30	0x3ca09f69	0.019607263
31	0x3c8015bf	0.01563537
32	0x3d49625f	0.04916608
33	0x3b9c65ce	0.0047728783
34	0x3d87ff14	0.06640449
35	0x3ca4484e	0.020054009
36	0x3d613750	0.05498439
37	0x3cd9b277	0.026574356
38	0x3c9ddd9f	0.019270716
39	0x3b9824a1	0.0046430384
40	0xbc2945d5	-0.010331591
41	0xbcf1cc7a	-0.029516447
42	0x3bee9dda	0.007282001
43	0x3c82b527	0.01595552
44	0x3ccd6768	0.025073722
45	0x3c7005cb	0.014649819
46	0xbbdfaf50	-0.006826319
47	0x3c80cdf0	0.015723199
48	0x3c3f80b7	0.011688403
49	0x3c8923e9	0.016740756
50	0x3c83d547	0.01609291
51	0x3c95e91b	0.01829963
52	0x3c6a2c3b	0.014292772
53	0x3da5df69	0.08099253
54	0xbce988c9	-0.028507607
55	0xbaaeeeab	-0.0013346275
56	0x3bea8711	0.0071572145
57	0x3d004b52	0.03132183
58	0x3cdf259f	0.027239619
59	0x3bb77979	0.0055991975
60	0x3c73451a	0.014848018
61	0x3cecf030	0.028923124
62	0xbd7e09f9	-0.06202123
63	0x3c9c6b6d	0.019094193
64	0x3bdcbc6a	0.006736328
65	0xbb01dfaf	-0.0019817164
66	0xbd5180ef	-0.05114835
67	0x3c7ecb43	0.015551391
68	0xbd9b8c81	-0.07595158
69	0x3d95a7c6	0.07307391
70	0x3cf62f05	0.030051718
71	0x3b73b922	0.0037189205
72	0x3c9b78fe	0.018978592
73	0xbbcc2a7c	-0.0062306505
74	0xbb219e98	-0.002466118
75	0x3abd4e18	0.0014442829
76	0xbc391b40	-0.011298001
77	0xbb44eaf9	-0.0030047281
78	0x3cadfd72	0.021239016
79	0x3c904be2	0.017614309
80	0x3cd93381	0.026513817
81	0x3c512f93	0.01276769
82	0xbbc71ead	-0.006076655
83	0x3ca74dd4	0.020422854
84	0xbd20aaae	-0.039225273
85	0x3cc681ef	0.024231879
86	0x3c48ac4f	0.012248113
87	0xbd6ad5f2	-0.05733294
88	0xbcd4d277	-0.025979264
89	0x3bff572e	0.007792375
90	0x3bff1ff2	0.0077857906
91	0xbd634c66	-0.05549278
92	0xba658b24	-0.00087563903
93	0xbcad2ebf	-0.021140454
94	0x3c57546d	0.013142687
95	0xbd6eb8fd	-0.058281887
96	0xbb8d262f	-0.0043075304
97	0x3c3ef6d6	0.01165553
98	0x3be3dba8	0.0069536753
99	0x3d45c47e	0.048283093
100	0x3ce60b50	0.028081566
101	0x3c643908	0.013929613
102	0xb9af4903	-0.00033433
103	0x3c813bc8	0.015775576
104	0x3d7f24c3	0.062290918
105	0x3c699c4a	0.014258454
106	0x3cd7c132	0.02633724
107	0x3cbbcdcf	0.022925286
108	0xba82aa0c	-0.0009968891
109	0x3cb5b8ac	0.022182785
110	0x3ca827dd	0.02052682
111	0x3cacab8e	0.021077897
112	0x3c2c5a04	0.010519508
113	0xbd55ea3b	-0.052225333
114	0x3b1ab2b8	0.002360506
115	0x3c8a1e7d	0.016860241
116	0x3adf71f3	0.0017047509
117	0x3c8501e6	0.016236257
118	0x3d5f9615	0.05458649
119	0xbd396af9	-0.045268033
120	0xbc90c331	-0.0176712
121	0x3b84070c	0.0040291604
122	0xbbd86b26	-0.00660457
123	0xbb0df278	-0.0021659415
124	0xbc81d0c9	-0.015846627
125	0x3c37b0cc	0.011211585
126	0xbd80efa7	-0.0629571
127	0xbc03bf33	-0.008041191
128	0xbd0cdf34	-0.03439255
129	0x3c8c43b7	0.017122133
130	0xbadee302	-0.001700491
131	0xbcf7337b	-0.030175915
132	0xbd8c515d	-0.06851456
133	0x3cbfa354	0.02339331
134	0x3d33c02e	0.04388445
135	0xbcbedeef	-0.023299662
136	0x3c11d96d	0.008901936
137	0x3d547d59	0.051877353
138	0x3c0a4f59	0.0084417695
139	0x3ce0d2af	0.027444212
140	0xbb41b09c	-0.002955473
141	0x3b0f6fbc	0.0021886667
142	0x3c67c0e6	0.014145112
143	0xbc7cbf94	-0.015426535
144	0xbe2fd996	-0.17172846
145	0x3c5548cc	0.013017844
146	0x3c93138b	0.017953655
147	0x3c7cda84	0.015432958
148	0xbb260c72	-0.0025337008
149	0xbcab0097	-0.020874305
150	0x3d0583e5	0.032596488
151	0xbb152bd7	-0.0022761726
152	0xbcdddae4	-0.027081914
153	0x3d0a1d51	0.033719365
154	0x3c2cc182	0.010544183
155	0x3b978e15	0.004625092
156	0xbd21d298	-0.03950748
157	0x3cba738f	0.02276018
158	0x3beff5fa	0.007323024
159	0x3c9c4e58	0.019080326
160	0x3c39406f	0.011306866
161	0x3d118d97	0.03553542
162	0x3af0658a	0.0018340808
163	0x3d251870	0.04030651
164	0xbb99625e	-0.0046809157
165	0x3c01f7d4	0.007932622
166	0xbb29aa0e	-0.0025888714
167	0x3b8c5268	0.0042822845
168	0xbcb39775	-0.021922806
169	0xbd9712d9	-0.07376642
170	0x3c4ca1b5	0.012489726
171	0x3c505a34	0.012716819
172	0x3c2a3a56	0.010389885
173	0xbbf7e5eb	-0.00756525
174	0x3c0e321f	0.008678942
175	0x39daca60	0.0004173098
176	0x3ce07741	0.027400615
177	0x3b8605cc	0.0040900465
178	0x3c8c335c	0.017114334
179	0xbd857568	-0.06516534
180	0xbd84855c	-0.06470749
181	0x3c74cbc1	0.014941157
182	0xbc40ee16	-0.011775514
183	0x3c30d0d9	0.010791981
184	0x3d491e99	0.049101446
185	0x3c96fd0a	0.018431205
186	0x3c8fb5bd	0.017542714
187	0x3ba84f42	0.0051364014
188	0x3c554af7	0.013018361
189	0x3b990d65	0.004670786
190	0x3c304eff	0.010761022
191	0x3e123630	0.14278483
192	0xbc1e665c	-0.009667959
193	0x3cff2ccf	0.031149296
194	0xbcaba2aa	-0.020951588
195	0xbd652926	-0.055947445
196	0xbdfdc03c	-0.123901814
197	0x3bf9fb64	0.007628845
198	0xbcca4349	-0.024690287
199	0x3b8001a8	0.0039064474
