ckpl/generator_40000.pth (torch, 331823 bytes, 8 tensors)

net.0.weight f4 [200, 4]
000000 7a 47 0d 3f 43 69 cf 3e cc 9f 96 3f cb 1a 1d bf
       0.5518719 0.40509996 1.1767516 -0.6136901
000010 9a 80 6e be 15 8a f4 3c 52 04 a4 bf 72 27 9e bf
       -0.23291245 0.029850999 -1.2813818 -1.2355788
000020 84 27 57 3e e0 a7 10 3f 4d b4 88 3d cc 83 c9 be
       0.21011168 0.56506157 0.06675015 -0.39358366
000030 90 24 5b 3f 01 00 f0 3e 76 81 49 3f 26 34 dd 3e
       0.85602665 0.46875003 0.78713167 0.4320385
000040 43 88 31 bf 4f a2 d9 bc ef 09 70 be 66 d2 f9 3e
       -0.69348544 -0.026566653 -0.2344129 0.48793334
000050 fb ab 25 3f 6b 9d 17 3f 88 4c f3 be 4f ca 07 bf
       0.64715546 0.59224576 -0.47519326 -0.53043073
000060 56 d5 6d bf d6 c5 42 bf c1 51 80 bf 02 c8 b9 be
       -0.9290365 -0.76083124 -1.0024949 -0.36285406
000070 a8 dc 6c 3f ac e9 34 be ee d2 df bf eb 06 c0 3e
       0.92524195 -0.17667264 -1.7486246 0.37505278
000080 72 86 fd be ee 56 6d bd 45 04 78 bd fe 48 a7 be
       -0.49516636 -0.05794423 -0.060550947 -0.32672876
000090 73 61 02 3f d8 ae 94 bf f4 02 6d 3f a8 eb 12 bf
       0.50929946 -1.1615858 0.9258263 -0.5739083
0000a0 02 ba 1a 3f f1 77 2e 3f 5b c3 7e bf 05 b8 59 3f
       0.60440075 0.68151766 -0.9951684 0.85046417
0000b0 c4 1d 03 3f 3e 68 5d 3f 83 0e 2a be 17 a3 93 be
       0.51217294 0.86487186 -0.16607098 -0.28835365
0000c0 d5 3b 3f bf 7d 3c 08 3f 09 44 cf 3f 5a da 0b 3f
       -0.7470067 0.532173 1.6192638 0.54630053
0000d0 1b 0e 73 3f 61 a0 a2 3e 64 c3 40 be 57 ef 0f 3f
       0.949434 0.31762984 -0.18824536 0.5622458
0000e0 9b 6f 32 bf 03 cd 6c bf 45 b7 7b bf bd a2 02 bf
       -0.69701546 -0.92500323 -0.9832652 -0.5102957
0000f0 5c f9 94 3e 39 c0 bf be 68 9b 30 be 29 d5 61 bf
       0.29096496 -0.37451342 -0.17246783 -0.8821588
000100 7b 6a 63 3e 76 ff 01 3e bb 05 88 3d 52 28 e9 be
       0.22208588 0.12695107 0.06641718 -0.45538574
000110 44 39 8d be da 2e b1 be 13 5d f0 be 10 cd ac 3e
       -0.27582753 -0.34606057 -0.4694601 0.337502
000120 d9 f0 27 3f 6e 6b 0d bf 60 ce b3 bd 5a b4 68 3e
       0.6560188 -0.5524205 -0.08779597 0.22725049
000130 58 3a cc bd 07 42 b4 3b e6 88 38 bd 88 cc 0f bf
       -0.09972066 0.005501035 -0.04505243 -0.56171465
000140 ac 3a 86 3e 6b 4b b6 3e 3b 4e 1e 3f 99 08 94 be
       0.26216638 0.35604414 0.6183812 -0.2891281
000150 40 bb cf 3e 8c b5 41 3e 3a a6 bb 3f 2f d6 d1 3e
       0.40572548 0.18916911 1.4660103 0.40983722
000160 44 88 a3 3c b0 08 09 bf 63 6f 58 3e 46 50 1c bf
       0.019962437 -0.5352888 0.2113624 -0.6105999
000170 c7 59 8c 3e 06 af af bc 3a ff a5 be af e3 85 bf
       0.27412245 -0.021445762 -0.32421285 -1.0460109
000180 7e 0b c0 3e f8 f2 2e 3f 8c af 4f bf 84 c0 81 3f
       0.37508768 0.6833949 -0.8112724 1.0136876
000190 eb e9 10 bf ed 0b a9 bf 20 fa 86 3d 47 62 8a 3f
       -0.5660693 -1.3206764 0.06590676 1.0811242
0001a0 90 77 82 3f c6 1d 58 be 0d a1 1b be f4 0d bf 3e
       1.0192738 -0.21105108 -0.15198155 0.37315333
0001b0 6f 44 aa 3e f8 e4 16 bf 60 61 60 bf cd 56 bc 3c
       0.33255336 -0.5894313 -0.8764858 0.022990609
0001c0 36 e4 b1 3b 93 79 f7 be f4 1c 1e bd 7f ee 85 3e
       0.005428816 -0.4833494 -0.03860183 0.2615852
0001d0 30 71 00 be 1e 8f 3e 3f 50 0c 18 bf 3f 5e 6c be
       -0.12543178 0.7443713 -0.5939379 -0.23082827
0001e0 7a a3 6c 3e 8c 0c 8c 3f 6d c6 ce 3d ae d4 a0 3e
       0.23109236 1.0941329 0.100964405 0.31412262
0001f0 8c 12 6a bf bb 52 23 3e de 72 a8 bf 91 4f 5b 3f
       -0.9143455 0.15949528 -1.3160055 0.85668284
000200 03 e6 07 3e e1 13 71 bd d8 8d d0 3f b1 a9 d7 be
       0.13271336 -0.05885685 1.6293287 -0.42121652
000210 d7 22 90 be a6 93 30 be a7 31 a4 be 56 a2 08 3e
       -0.2815158 -0.17243823 -0.32069132 0.13343176
000220 a9 34 05 bf 35 31 fe be 09 15 0e 3f a7 d8 09 3f
       -0.5203348 -0.49646917 0.5550085 0.5384621
000230 7a 8a ee 3d 9e 9f 14 bc 5e 92 ee be be 06 d5 3e
       0.11647506 -0.009071259 -0.46596044 0.41606706
000240 5a 48 17 bf b6 06 34 3f a9 34 5c 3e 3a b4 8b bf
       -0.59094775 0.7032274 0.21504463 -1.0914376
000250 70 28 aa 3f dd 38 47 be 74 5b 9d be 00 89 fa 3f
       1.329359 -0.19455285 -0.30733836 1.9573059
000260 4f c9 1b be 5b e1 0b 3f 18 6f d4 be 92 07 cb 3f
       -0.15213512 0.5464074 -0.41491008 1.5861685
000270 c5 19 0f 3f e5 02 a9 be 7a 83 0a 3e fb 23 49 be
       0.55898696 -0.3301002 0.13526717 -0.19642632
000280 ce ea 28 3f e1 db 02 bf 0b 25 dc 3f 74 f2 15 be
       0.65983284 -0.5111676 1.7198805 -0.1464327
000290 68 11 88 3d 53 e4 9f 3e 85 49 43 3f a0 54 a4 be
       0.06643945 0.31228885 0.76284057 -0.32095814
0002a0 c6 10 fb 3d 4c 9e a3 be 72 bb 2f bf 7c e9 a2 3c
       0.12259059 -0.31956708 -0.68645394 0.019886725
0002b0 3e c1 32 3e 78 29 21 bf 16 f7 a8 bf fe dd 82 bb
       0.17456529 -0.629539 -1.3200405 -0.0039937487
0002c0 9f 4d 27 3e 7d c2 c0 3c 7a 1a f0 3c b6 c2 06 bb
       0.16338204 0.02353024 0.0293095 -0.0020562834
0002d0 60 15 2e 3f cc 22 60 3f 10 56 8b 3f 25 68 dd bc
       0.68001366 0.87553096 1.0885639 -0.027027199
0002e0 5a a5 61 be 5d 2d 03 bf 04 b7 c6 3e 3e cc ab 3d
       -0.22035733 -0.51241094 0.38811505 0.083885655
0002f0 38 b4 b8 3e 3c fc 0f bd 6e 42 ec 3e e5 ca e9 3e
       0.36074996 -0.03515266 0.46144432 0.4566261
000300 b9 82 41 3e 11 e9 c8 3e bf 44 79 be d2 27 88 bf
       0.18897523 0.39240316 -0.24342631 -1.0637152
000310 18 3d cb be 19 81 8c 3e 08 4f c9 be da 13 04 bc
       -0.39695048 0.27442244 -0.3931811 -0.008061374
000320 f9 d1 4b bf 42 32 3d 3e ab 98 3b be c8 88 ca 3e
       -0.7961727 0.18476203 -0.18319957 0.3955748
000330 5e b2 95 be ef 3e 94 bb be cb 24 3f 94 83 04 bf
       -0.29237646 -0.004524104 0.64373386 -0.5176327
000340 7a ba 5c be 89 33 c3 3b 02 a4 91 3d 82 3d 1d be
       -0.2155551 0.005957071 0.0711136 -0.15355495
000350 e2 4b 9a 3d ec dd a7 bf 07 b2 d1 3e da 35 0a bf
       0.07534005 -1.31146 0.40956137 -0.5398842
000360 28 a4 e7 3e 94 d0 6c 3e dd af 96 3f 82 04 50 bf
       0.4524243 0.23126441 1.1772419 -0.8125688
000370 72 7a 89 be db ac dc be 2f 8a 87 bf ef fe 6b be
       -0.2685123 -0.43100628 -1.0589045 -0.23046468
000380 80 bb 20 bf c5 76 a9 3d f2 33 f8 3e 94 52 22 bd
       -0.627861 0.082746066 0.4847713 -0.039629534
000390 cf f6 3b be cb c1 2c bf d9 5a 79 3f 45 4d 92 3d
       -0.18355869 -0.67483205 0.9740425 0.07143644
0003a0 13 4c a1 3e fe 79 49 bf 6e 06 d0 bc 60 3a ca 3e
       0.31503353 -0.7870177 -0.02539369 0.39497662
0003b0 c4 c8 98 bf 31 58 04 bf 1f cd 56 3f 4b 7d b8 bd
       -1.1936269 -0.5169707 0.8390674 -0.09008273
0003c0 05 38 9d 3f 40 ca bc bf e5 c9 ba bd c8 a6 01 3e
       1.2282721 -1.4749222 -0.091205396 0.12661278
0003d0 3e 31 12 3f e6 39 3e bf e8 c1 f3 be d0 79 7d bf
       0.5710639 -0.74307096 -0.47608876 -0.99013996
0003e0 e5 61 36 bf 48 7e d1 3e d8 75 a0 3e e3 99 bb be
       -0.71243125 0.40916657 0.31339908 -0.36640844
0003f0 0e 71 56 be b7 97 5e bf 80 64 9c bf 69 84 51 bf
       -0.20941564 -0.8695025 -1.221817 -0.81842667

net.0.bias f4 [200]
000000 26 28 a2 3d 53 bf a0 3d 94 5e 48 be 04 51 6f 3e
       0.07917814 0.07848992 -0.19567329 0.23370749
000010 48 0f 19 be 8f b2 9d bd fd 62 78 be aa e2 11 3e
       -0.14947236 -0.07700073 -0.24256511 0.14246622
000020 41 4f d6 3e ea 2a 00 3d 9b 85 9b be e0 cf 24 3e
       0.4185734 0.031290926 -0.3037537 0.16094923
000030 02 e0 31 3e cb 7f b6 3e e0 ce 9f 3d 8e 04 9e 3e
       0.17370608 0.35644373 0.0780313 0.3086285
000040 12 4d b2 3e 23 d2 0d be 73 9c 5b 3d 87 6d 9c be
       0.34824425 -0.13849692 0.053616 -0.30552313
000050 01 48 80 3e 5a 75 0d 3d 21 64 8d 3e d2 c7 94 3e
       0.25054935 0.034535743 0.27615455 0.290587
000060 04 1c 0b 3e ef 1c 14 be 7b f5 95 3e 88 1f 98 3e
       0.13584906 -0.14464162 0.2928885 0.29711556
000070 c6 32 d8 3e 7d 13 11 3e 16 31 fb bd 64 51 b4 3d
       0.42226237 0.1416759 -0.12265222 0.088045865
000080 b8 a3 7f be c3 79 e7 3e b6 55 cc be e8 bb 87 be
       -0.24964797 0.45210084 -0.39909142 -0.2651055
000090 7e ba be 3c 1f 07 65 3d fe 9f 37 3e 9d 7e 99 3e
       0.023282286 0.055914994 0.17932126 0.2997941
0000a0 b5 10 6d 3c 5c af c8 3e 26 0e ee bd 74 09 df 3d
       0.014469315 0.3919629 -0.11623792 0.10890475
0000b0 11 e7 bf 3e d5 0c fc bd ff 08 b9 3e 3d 6e fd bb
       0.37480977 -0.12307135 0.36139676 -0.0077340887
0000c0 8c 16 33 3d 78 5e 35 be db 29 77 3e 34 76 c9 3e
       0.043722674 -0.17711818 0.2413706 0.39347994
0000d0 de 84 b5 3e 8f b9 a6 3e c9 cf 1c 3e a6 95 dc 3d
       0.35452932 0.32563445 0.15313639 0.10770731
0000e0 25 ec d1 3e 59 02 e9 bd f0 ad da 3e ac 8d 3f 3e
       0.41000476 -0.11377401 0.4271083 0.18706387
0000f0 aa ba d9 be 30 d1 4e 3e 66 df 0c be 9e 46 40 3e
       -0.42525226 0.20196986 -0.13757095 0.18776938
000100 ab 27 88 be ee 79 45 be 70 30 80 3e 34 f6 c7 bd
       -0.26592764 -0.19284794 0.25036955 -0.097637564
000110 be af 9b 3e c0 49 5e 3e c0 3d 17 3e 50 c9 d9 3e
       0.30407518 0.21707821 0.1476965 0.42536402
000120 fa c9 0b 3e c7 01 8f be 69 19 53 3e 50 1b 04 be
       0.13651267 -0.27931044 0.20615162 -0.12901044
000130 51 77 ce bd 21 f6 19 3c 3b fb b7 3d dd 12 d9 3e
       -0.100813515 0.009397061 0.08983465 0.42397204
000140 e4 78 c3 3e a1 8b 92 3c 80 fc a5 3e b4 0b 23 be
       0.3817817 0.017888846 0.32419205 -0.15922433
000150 a1 a5 be 3d 32 a3 71 be 90 4a cf be ad b6 bd 3d
       0.09308935 -0.2359741 -0.40486574 0.09263358
000160 7b 05 31 be 17 be 8e be 97 e3 eb 3e 7f 08 df 3e
       -0.17287247 -0.27879402 0.46072075 0.4356117
000170 d0 fe f2 3d 77 f5 cd 3d 50 1d d2 3e e1 db b0 3e
       0.11865008 0.10056584 0.4103799 0.34542754
000180 a6 ef 6b be 29 0b 9d bc 19 15 48 bc 5f c9 ac 3e
       -0.23040637 -0.01917036 -0.012212061 0.33747384
000190 6a e2 05 be 79 dd 28 3e 4c b2 29 be 1b d3 3f 3e
       -0.13074651 0.16490735 -0.16571921 0.18732874
0001a0 17 9d ce 3e 62 2b fd 3e a0 85 74 3d 11 4f 40 3e
       0.40354225 0.4944716 0.059697747 0.18780161
0001b0 01 74 9a 3e d6 90 cf 3e ea fe c4 3e d8 19 a7 3e
       0.3016663 0.4054019 0.38475734 0.32636905
0001c0 5c 63 06 be 4c 04 97 3e 55 5f 38 3e 61 41 1b 3e
       -0.1312384 0.29495466 0.18005116 0.15161659
0001d0 05 33 78 be 3c 44 c5 bd 34 dd 8d be 85 54 a8 3e
       -0.24238212 -0.09632155 -0.27707827 0.32876983
0001e0 49 5f 6b 3e 79 ba ef 3e b5 d7 1f be 01 64 48 be
       0.22985567 0.46821955 -0.1560963 -0.19569398
0001f0 bf 9e 9d be 03 f0 8b be c1 bc 87 3e 67 cb 9b 3e
       -0.30785176 -0.27331552 0.26511195 0.3042862
000200 6f ae 91 3e 25 f5 9b 3e 84 d7 05 3e a3 5e ca 3e
       0.28453395 0.30460468 0.13070494 0.39525327
000210 21 2a 69 3e d1 6b 34 3e 03 0a b0 3e 49 c5 74 bc
       0.22769977 0.17619254 0.34382638 -0.014939615
000220 71 9e a6 be b3 c7 fe bd 89 49 78 be cc 67 9e 3e
       -0.32542756 -0.12440433 -0.24246801 0.30938566
000230 aa 4d da 3d 98 ec ee 3e 65 2e 73 3e 86 57 8c 3e
       0.106593445 0.46664882 0.23748167 0.27410525
000240 9c a8 e7 3d 76 f5 2c 3d 4a 23 6b 3e 5e 87 82 3e
       0.113114566 0.042226277 0.2296268 0.25493902
000250 69 2e 5a 3e b9 f6 d2 3e 86 96 d8 3e e9 d6 d0 3e
       0.21306767 0.4120386 0.4230234 0.40788963
000260 98 26 d6 3d 90 14 94 3e 26 60 68 be 5a 7b a9 bd
       0.1045658 0.28921938 -0.22692928 -0.082754806
000270 ca 07 be be 3c c5 cd 3d 9e f5 0e be d7 18 bd 3d
       -0.37115318 0.10047385 -0.13960883 0.092332534
000280 18 59 b0 bd bd 76 b7 3e 7e 53 23 bd 38 63 8e 3d
       -0.08610743 0.35832778 -0.039874546 0.06952518
000290 d9 63 e3 3e bc 29 1a 3c 5b 48 06 be 23 13 ad 3e
       0.44412115 0.009409364 -0.13113539 0.33803663
0002a0 4e 63 ad 3e c8 84 b4 3e 60 64 d1 3e e0 e6 dd 3e
       0.33864826 0.35257554 0.40896893 0.43340206
0002b0 82 e3 72 3e 41 65 81 3e fc 7b d1 3e 1f 9d dd 3d
       0.237196 0.25272563 0.40914905 0.10820984
0002c0 a4 92 66 3e c0 f2 d2 3e ea 23 57 3e 83 8c 80 3e
       0.22516876 0.4120083 0.21009794 0.25107202
0002d0 d1 2d ee 3d ed 00 b9 3e 85 e5 b8 3e cb 60 68 3e
       0.116298325 0.3613352 0.3611261 0.22693174
0002e0 bd 8d c7 3e ad e3 8b 3e 2a 41 c0 3e e1 b4 cb 3e
       0.38975325 0.2732214 0.37549716 0.39786437
0002f0 0c d7 38 be 04 0b 50 be 4b f6 ce 3c 45 e3 76 3e
       -0.18050784 -0.20316702 0.025263926 0.24110134
000300 01 ac 96 3e f8 ac a5 be 3d 35 95 3e e6 b2 8b be
       0.29428104 -0.32358527 0.2914218 -0.27284926
000310 cc b3 80 3e 0a 75 40 be 7c 90 a9 3e b5 30 93 be
       0.25137174 -0.18794647 0.33118045 -0.28748098

net.3.weight f4 [200, 200]
000000 97 2b 59 bc c4 7b 59 be 21 f8 bd 3d 18 52 59 be
       -0.013255022 -0.21238619 0.092758425 -0.21222723
000010 12 10 99 3d 7a 11 18 bd 34 f6 9e 3d 09 85 0a bd
       0.07473768 -0.037126042 0.07761803 -0.03381828
000020 07 15 8d 3d 28 7a 71 be da 55 e6 bd 85 69 c8 bd
       0.06888776 -0.23581755 -0.11246844 -0.09785751
000030 d4 25 82 bd ce 5b 60 3d 3d 48 85 bc dd 47 65 3d
       -0.063548714 0.05477505 -0.016269797 0.055976737
000040 61 39 33 be 92 59 11 be f5 11 ee bd 39 c7 94 3d
       -0.17502357 -0.14194325 -0.11624519 0.07264561
000050 e4 40 e3 bd d0 c3 a2 bd dc 45 06 3e 48 e5 c2 bc
       -0.11096361 -0.079475045 0.13112587 -0.02379097
000060 8b 86 8a 3c 1a 56 9a bd 1f e9 4f 3c 7b 6c d5 3d
       0.016909858 -0.07535954 0.012689858 0.10421082
000070 86 41 e5 bd 70 19 36 bd da 05 fe bd 96 cf fb bc
       -0.11194138 -0.044457853 -0.1240346 -0.030738633
000080 87 9a 7a bd 01 b5 22 3e 22 55 5e 3d 11 43 9b 3b
       -0.061182525 0.1588936 0.054280408 0.0047382195
000090 44 2f 7e 3b 2f 8a e7 bc 3f 6f 1d be f5 db dd bd
       0.0038785497 -0.028264133 -0.15374468 -0.10832969
0000a0 5b dd f2 bd 4f 97 20 bc e1 f0 e6 bd bd 33 f4 3c
       -0.118586265 -0.0098017 -0.11276413 0.029809827
0000b0 67 57 e2 bd db b7 0d bd c1 24 49 be 6d 77 72 3d
       -0.11051827 -0.034599166 -0.19642927 0.059195925
0000c0 b2 8a 3b be 72 77 20 3e 04 e1 f4 3b f8 10 83 bd
       -0.18314627 0.15670565 0.007473113 -0.06399721
0000d0 0d ea e1 bc 10 8f b9 bd 42 15 69 3d eb 7f e6 bd
       -0.027577424 -0.0906049 0.05690504 -0.11254867
0000e0 25 6d 4b bd d1 da 06 bd 82 72 18 be cf 99 84 3c
       -0.049664635 -0.032923523 -0.14887431 0.016186623
0000f0 57 87 12 be 22 4b 00 be 2a b7 29 3c 4c 05 8a bd
       -0.1430944 -0.12528661 0.010358611 -0.067392915
000100 56 59 e4 3d a6 c9 a2 3b a8 5a fc bd aa 2e 0f bd
       0.11149852 0.004967886 -0.12321979 -0.03495661
000110 87 de 26 be 3b 36 95 3d 96 07 1e bd 28 13 b9 3b
       -0.16295825 0.07285734 -0.038581453 0.0056480356
000120 aa 74 3b be ad b5 9c bc 2b 05 f1 bd ac 5e 96 3d
       -0.18306223 -0.019129599 -0.11768564 0.07342276
000130 85 11 8d 3d 5f 4d e3 bb 12 b0 01 be 6d 55 1e 3d
       0.06888107 -0.0069367136 -0.12664822 0.038655687
000140 ac d5 a7 bd 3f 33 2f be 0e 87 09 3c ac a9 10 bd
       -0.081950516 -0.17109393 0.008394016 -0.03531806
000150 5d 19 00 be 9b a5 a9 bd 60 76 96 3d a4 c0 05 3e
       -0.12509675 -0.0828354 0.07346797 0.13061768
000160 9a c5 6f 3c 72 8f 05 3d 35 7d fd 3d 8b f0 dc bd
       0.014634514 0.032607503 0.12377397 -0.107880674
000170 de 9d 8f bc 08 56 8c bc 55 fb a9 bd e5 8e e0 3d
       -0.017531332 -0.017130867 -0.08299891 0.10964755
000180 57 9f 32 bd e6 af b8 bd ab c8 48 be 31 5d c8 bd
       -0.04360899 -0.09017925 -0.19607799 -0.097834
000190 63 63 77 3d 33 67 3b 3e 0e de 7f bd f1 6a e5 bd
       0.060397517 0.18301086 -0.062467627 -0.11202038
0001a0 df b3 88 bb d3 8f 1f bd 0b 7b 6f 3d ca 5c 68 b7
       -0.004171833 -0.03895552 0.058466952 -1.3849882e-05
0001b0 57 e5 26 3d 29 35 8f 3b 31 34 41 be 67 dc f6 bd
       0.04074606 0.004370351 -0.18867566 -0.12053757
0001c0 ce 3f a4 3d 81 45 2b 3e a0 6d 9c bd 43 a9 cc 3c
       0.08019982 0.16725732 -0.07638097 0.024983054
0001d0 a0 05 cd bb 9d 83 ce bc 81 1a fc 3c a1 c1 c0 bd
       -0.006256774 -0.025209242 0.030774357 -0.09411932
0001e0 86 a2 39 be ea 9f a6 bd 92 57 fc bd 99 4a a6 bd
       -0.18128404 -0.0813597 -0.1232139 -0.08119697
0001f0 af aa 2a be 4c 3a e0 bd 1b dd 6c bd ea 92 83 bc
       -0.16666673 -0.10948619 -0.05782805 -0.016061265
000200 cf 6e db bd 0c cc b7 bd dd 59 d2 bd c3 c2 80 be
       -0.107144944 -0.08974466 -0.10271046 -0.2514859
000210 3a 52 34 bd 13 47 33 bd 28 30 af 3c 67 1c 0c bc
       -0.04402373 -0.043768954 0.021385267 -0.0085516935
000220 df fd 41 bd fd b6 2f 3b 07 21 15 be 3e c0 78 be
       -0.04736125 0.002681195 -0.1456338 -0.24292085
000230 16 71 57 bd b6 c9 56 be eb 03 c6 bd b4 fa 78 bc
       -0.05259808 -0.20975384 -0.09668716 -0.015196491
000240 03 1a f9 bd 92 a7 ff bd a6 b6 f6 3d 87 60 39 be
       -0.121631645 -0.124831334 0.12046556 -0.18103229
000250 81 8e a2 bc d3 7a 97 bd 08 51 0f 3d fa 05 34 be
       -0.019843342 -0.07396474 0.034989387 -0.17580405
000260 12 f1 74 bd 6d 5b 8a 3c 42 7f 4e bc 05 22 0b be
       -0.059800215 0.016889298 -0.012603583 -0.13587196
000270 cd 8c ee 3d c7 92 ed bd 2b 85 48 be 00 61 3d 3d
       0.11647949 -0.11600261 -0.1958205 0.046235085
000280 42 ae 9f 3c e1 1c 90 bd 44 dc 34 bd 3c 16 86 3c
       0.019492272 -0.07036758 -0.044155374 0.016368024
000290 73 c2 07 3e 6b a2 ca bc 9a 80 57 bd 78 03 dc bd
       0.1325777 -0.02473565 -0.05261288 -0.10742849
0002a0 d1 72 04 bd cc ef 41 be f5 bc 60 bc 31 f4 ed bd
       -0.03233606 -0.18939131 -0.013716926 -0.116188414
0002b0 eb 34 98 bd 40 ba 7b 3d e6 12 1a 3d bf 15 57 bd
       -0.07431968 0.06145692 0.03761568 -0.052510973
0002c0 da 64 ed 3c f5 90 90 bd b1 28 01 3e ec 93 50 bd
       0.028978754 -0.07058898 0.12613179 -0.05092232
0002d0 e8 a2 78 be ff d8 86 bd 96 66 e6 3d 5d a5 8a bd
       -0.24280894 -0.065843575 0.112500355 -0.06769822
0002e0 f0 99 25 3e 0e aa ee bd 62 d9 24 3d 0b 08 55 3d
       0.16172004 -0.11653529 0.040246375 0.052009623
0002f0 c3 3f c9 3b 18 92 cb 3d d7 05 a3 3c ee 5b 42 bc
       0.006141634 0.099399745 0.019900246 -0.011862738
000300 80 d1 94 3d 2b 08 8c 3d a6 e6 3c bd a1 cf 50 3d
       0.072665215 0.068374954 -0.0461184 0.05097926
000310 78 db 1f be be db c7 bd 9d 32 02 3d 7f d4 b1 3c
       -0.15611064 -0.09758709 0.03178655 0.021707771
000320 3f 53 a3 3d 08 7d 88 3c 6b 46 8c 3d 42 2b de bd
       0.07974862 0.016661182 0.06849369 -0.108480945
000330 56 31 e8 bd 17 4d bb 3d 28 fb 07 bc fd 29 6a bd
       -0.11337535 0.09145563 -0.008299626 -0.05716895
000340 b3 21 f7 3b 14 e6 4a 3d ed 5e 10 be 58 9d 04 3d
       0.007541859 0.049535826 -0.14098711 0.032376617
000350 05 f1 da 3c 44 f5 12 3e e4 f8 a6 bd c1 34 f7 bd
       0.026726255 0.14351374 -0.08152941 -0.12070609
000360 f8 14 b3 3d 3e d3 43 bc 24 48 fa bd 21 ff 16 bd
       0.08744234 -0.0119522195 -0.12220791 -0.036864404
000370 53 dc 84 be 63 9a c4 bc 98 b9 f7 bd 62 2c 7a bd
       -0.25949344 -0.023999399 -0.12095946 -0.061077483
000380 54 20 71 bd f5 a7 39 bc 65 1c dd bc 62 1b c1 bd
       -0.05886872 -0.011331548 -0.026991079 -0.09429051
000390 fc d5 a3 3d 2d dd bd 3c 43 0b 8e bd d2 be 0e be
       0.07999799 0.023176754 -0.06935742 -0.1393998
0003a0 fa de 13 bd d1 dc e7 bd 71 c9 cb 3d cc f5 65 bd
       -0.03610132 -0.11321414 0.09950531 -0.056142613
0003b0 35 0d 1e 3d 17 7f b7 bd 9a 73 2c be 35 73 e6 3c
       0.038586814 -0.08959787 -0.16840973 0.028131107
0003c0 b0 3f 90 3d 36 1f 7f bd f0 c6 91 bd 7f f5 c1 bc
       0.070433974 -0.062285624 -0.071180224 -0.023676632
0003d0 c5 49 17 be a6 0d b0 3c bf f2 51 be 24 54 b8 bd
       -0.14774235 0.021490883 -0.20502757 -0.090004236
0003e0 78 35 93 bd dc 4f 4f 3e 45 e7 e7 bb 3b bc 34 3d
       -0.07187933 0.20245308 -0.00707713 0.044124823
0003f0 85 ba 02 be ed 6c 3f bd a6 52 28 bd c0 47 28 be
       -0.12766464 -0.04673474 -0.041094445 -0.1643362

net.3.bias f4 [200]
000000 18 a2 a6 bd c2 7e 2f bd 8f bd 1f be 7f 0f e2 bd
       -0.08136386 -0.042845495 -0.15599655 -0.11038112
000010 46 45 d8 bd c8 bc f9 bd 78 2c c1 bd c3 50 14 be
       -0.10560088 -0.1219421 -0.0943231 -0.14483933
000020 13 60 46 bd 11 a3 b5 bd 6b 3d a2 bd ac db b8 bd
       -0.048431467 -0.08868993 -0.07921871 -0.09026274
000030 6b 5c 80 bd e7 79 f9 bd 95 28 e7 bd c8 fd fa bd
       -0.06267627 -0.12181454 -0.11287037 -0.12255436
000040 cc 88 84 bd 7d bf b0 bd 94 08 65 bd bf 9b 9e bd
       -0.064714044 -0.086302735 -0.055916384 -0.0774455
000050 ba 83 84 bd d1 ca c1 bd 08 6d 11 be 72 f6 04 be
       -0.06470437 -0.09462512 -0.14201748 -0.12984636
000060 e4 ac a2 bd 51 d4 a5 bd c9 59 fe bd 12 a5 e5 bd
       -0.079431325 -0.08097137 -0.12419469 -0.11213125
000070 51 b6 b3 bd 1a 8c cb bd 7c e3 76 bd cc e5 b2 bd
       -0.087750085 -0.099388316 -0.06027554 -0.087352365
000080 98 82 0c be fa 8e 71 bd ec 05 bc bd 05 41 95 bd
       -0.13721693 -0.058974244 -0.09180817 -0.07287792
000090 49 bc d3 bd 3d 07 13 be 1b 16 7c bd 37 46 0d bd
       -0.10338647 -0.1435823 -0.06154452 -0.03449079
0000a0 f7 6f ec bd 45 76 1d be a3 9d 04 be 71 4e e5 bd
       -0.11544793 -0.15377147 -0.12950759 -0.11196602
0000b0 90 18 0f be 2c 74 03 be 06 3f a3 bd 8e 64 e1 bd
       -0.13974214 -0.12837285 -0.07971005 -0.110055074
0000c0 7e dc de bd 4b e2 cb bd 79 1f 0b be 94 4d aa bd
       -0.10881899 -0.09955271 -0.13586225 -0.08315578
0000d0 5a 00 a4 bd 78 d7 7a bd 8f d1 1a bd f3 9e 08 be
       -0.080078796 -0.061240643 -0.037797507 -0.13341884
0000e0 61 9d 90 bd e9 bd 0b bd d3 a6 e6 bd 3d 26 de bd
       -0.07061268 -0.03411666 -0.11262288 -0.10847137
0000f0 56 42 09 be 50 2a 07 be 63 b2 a6 bd a5 51 e8 bc
       -0.13404211 -0.13199735 -0.08139493 -0.028359244
000100 4b 80 d4 bd 8f c8 da bd 85 bc 3c bd 53 05 9d bd
       -0.103760324 -0.10682785 -0.046078224 -0.07667031
000110 51 3c 56 bd 3e c0 a7 bd ba 23 f1 bd 05 38 7e bd
       -0.052303616 -0.08190964 -0.117743924 -0.062065143
000120 8e 0a 61 bd 20 30 ec bd e3 a3 92 bd cb 02 d6 bd
       -0.054941706 -0.115326166 -0.07160165 -0.104497515
000130 28 05 c1 bd 2c d9 8a bd ce 2f ca bd 34 64 02 be
       -0.094248116 -0.067797035 -0.09872399 -0.12733537
000140 b2 28 74 bd 8e 6d 0e be 75 4c 0e be f3 e4 04 be
       -0.059609123 -0.1390898 -0.13896354 -0.12977962
000150 2b 4f 18 be 17 4a 06 be 09 51 2f bd 48 7e de bd
       -0.1487395 -0.131142 -0.04280189 -0.1086393
000160 71 e9 c6 bd 10 32 a5 bd b0 2c 12 be e1 09 4e bd
       -0.09712494 -0.08066189 -0.1427486 -0.05030239
000170 33 87 9f bd 55 23 43 bd 1b 1d dd bd 68 c1 fd bd
       -0.07789459 -0.047641117 -0.10796567 -0.12390405
000180 ca 0c c3 bd 94 18 83 bd 56 bb e8 bd 96 64 ca bd
       -0.09523924 -0.06401172 -0.113638565 -0.098824665
000190 bb 56 03 be 6a 71 3b bd a0 d2 b2 bd 3f cf 0c be
       -0.12826054 -0.045762457 -0.0873158 -0.13750933
0001a0 ea af 0a be ea a9 00 be ae 29 7d bd 81 d3 d6 bd
       -0.13543668 -0.12564817 -0.061807327 -0.1048956
0001b0 26 9d 31 bd 6e f5 19 be c5 fb 86 bd f4 6d e4 bd
       -0.04336276 -0.1503503 -0.0659099 -0.111537844
0001c0 18 0f 41 bd 6e 75 7e bd a1 40 83 bd d8 ce 74 bd
       -0.047133535 -0.06212371 -0.06408811 -0.059767574
0001d0 87 e3 a4 bc 90 54 bb bd b3 ac b0 bd cf 0b 0b be
       -0.020128025 -0.091469884 -0.0862669 -0.13578723
0001e0 79 32 98 bd 69 70 c1 bd 2b 3f 0c bd 64 8b 9c bd
       -0.07431502 -0.09445269 -0.03423993 -0.07643774
0001f0 f4 9a a8 bd 6b ac e5 bd e3 a4 74 bd 9f 72 b0 bd
       -0.0823268 -0.11214527 -0.05972756 -0.08615612
000200 ef 73 ed bd e5 21 e5 bd da 00 c1 bd 4c f9 0a be
       -0.11594378 -0.111881055 -0.094239905 -0.13571662
000210 07 2e fc bd fe 53 3c bd 2a 58 e6 bd 29 8a 05 be
       -0.123134665 -0.04597854 -0.11247285 -0.13040985
000220 93 8e 08 be 28 ff f5 bd 9e b9 cc bd 12 37 b2 bd
       -0.13335638 -0.12011558 -0.09996341 -0.0870191
000230 ef b7 e3 bd 54 c0 ef bd cd 38 06 be 5b 03 ae bc
       -0.11119067 -0.117066056 -0.13107605 -0.021241834
000240 8b f2 17 be 42 8c b8 bd 21 db 15 be 37 11 90 bd
       -0.14838617 -0.09011127 -0.14634372 -0.070345335
000250 c9 f3 13 be 66 f0 a5 bd f9 7d 0a be 2b 53 b0 bd
       -0.14448465 -0.08102493 -0.13524617 -0.08609613
000260 ca 8a 56 bd 22 5b ed bd 8b 3f 8e bd fb ad 1e be
       -0.052378453 -0.11589648 -0.069457136 -0.15496056
000270 93 33 08 be 25 e2 a7 bd 78 d5 d9 bd d6 f3 ce bb
       -0.13300924 -0.081974305 -0.10636419 -0.0063156886
000280 8e ec d0 bd 3c 89 17 be 20 db a7 bd 5b 15 bf bd
       -0.10201369 -0.14798445 -0.08196092 -0.09330245
000290 8a 1f cb bd 7f b5 dd bd 5f 69 98 bd dc bb 09 be
       -0.09918125 -0.10825633 -0.07441973 -0.13450569
0002a0 97 87 bc bd 1d a0 c5 bd 28 6c b1 bd d6 22 f9 bd
       -0.09205549 -0.0964968 -0.08663207 -0.121648476
0002b0 46 30 1e be 47 e7 29 be f9 8c df bd 95 c7 4b 3f
       -0.15448102 -0.16592132 -0.1091556 0.79601413
0002c0 84 db 64 bd f6 89 f8 bd 4f 5c bb bd 84 85 99 bd
       -0.05587341 -0.12135689 -0.09148466 -0.07496169
0002d0 d1 08 b9 bd 8b 25 e1 bd 19 f4 83 bd 57 77 b5 bd
       -0.09034885 -0.10993489 -0.06443042 -0.08860653
0002e0 5f e0 1d be 62 85 86 bd f3 ea a8 ba e6 66 39 bd
       -0.15417622 -0.065684095 -0.0012887403 -0.045264147
0002f0 d2 c1 bf bd 62 92 16 bd 05 be cd bd 0b e8 5e bd
       -0.0936314 -0.036760695 -0.10046009 -0.054420512
000300 8a 9e 07 be 16 f1 60 bd 8a c9 31 be 83 56 d1 bd
       -0.13244072 -0.054917417 -0.17362037 -0.10221579
000310 e0 a2 9a bd fc 26 81 bd ec b2 d7 bd b5 64 99 bd
       -0.07550597 -0.06306264 -0.105321735 -0.074899115

net.6.weight f4 [200, 200]
000000 9b 28 c2 bd 3a 40 a5 bc 35 64 ba 3b 5a 1a 41 bd
       -0.09480401 -0.020172227 0.005688215 -0.04714427
000010 5b 53 ab bd 3a 83 6c bd 9b ed 34 3d 96 50 af 3c
       -0.08365508 -0.057742335 0.04417191 0.021400731
000020 2d dc 43 3c 95 3e 69 3d 35 a2 bc 3d cf d6 9a 3d
       0.0119543495 0.05694445 0.09210626 0.07560503
000030 d8 93 dd bd ba d0 05 3d d8 63 ab 3b dd 8d 80 bd
       -0.108192146 0.03266976 0.005230408 -0.06277058
000040 e8 07 d8 3d 71 05 0d bd f4 7a 97 3a f2 a4 71 3e
       0.10548383 -0.034429017 0.0011557029 0.23598078
000050 e5 cd f3 3d 1e 01 86 3e 9b 33 8d bc c5 f0 3d bc
       0.11904506 0.26172727 -0.017236521 -0.011593048
000060 ce cb c8 3d bd e7 22 bc fc 89 8a bd 43 de 9c bd
       0.09804498 -0.009942946 -0.067646 -0.076595806
000070 e8 28 8f bd f9 7f 81 bb 1c a1 cc 3c eb ae 91 3d
       -0.06990224 -0.003952023 0.024979167 0.07113441
000080 b9 39 1f be 48 51 81 3d cf 2e 4c be 6f 37 5e 3b
       -0.15549363 0.06314331 -0.19939731 0.0033907553
000090 43 0b 26 bd e3 cd 88 bd bc 07 6e 3d 6c 1c 9d bc
       -0.040538084 -0.06679895 0.058112845 -0.019178592
0000a0 0c 55 f5 3d 53 64 fa 3d 63 de 53 3c fb 94 2f be
       0.11979112 0.122261666 0.012931439 -0.17146675
0000b0 56 4a 26 3d cb 33 d2 bc 68 01 6e bd 71 89 4d 3d
       0.040598236 -0.025659462 -0.05810681 0.050179902
0000c0 70 b0 0d be f1 7c ad bc 91 5f 60 3d 74 a4 f6 3b
       -0.13836837 -0.02117774 0.05477864 0.0075269286
0000d0 66 1b 68 3c 5a de 21 bd f2 c5 e6 3c 8a d3 11 3e
       0.014166689 -0.03951869 0.02817056 0.14240852
0000e0 c3 5f b9 3d c1 99 51 be 23 2e 03 bd 6d 0c f2 3b
       0.09051468 -0.20468809 -0.03202642 0.007386735
0000f0 d2 cd b1 3d 2d cb 78 3d bb 01 25 3d 58 d4 ee 3d
       0.08681835 0.06074064 0.040284853 0.11661595
000100 21 20 7e 3d 6b 37 88 bd 73 ac 07 bd f4 1c 04 3c
       0.06204236 -0.06651195 -0.033123445 0.008063544
000110 4f b5 29 3d 76 a7 67 bc 2a 32 81 bd 6a d6 38 bd
       0.041432675 -0.014139047 -0.06308396 -0.045126356
000120 35 1c ad bc 83 20 e2 3a d7 bd 12 3e 43 c7 5b bd
       -0.021131614 0.0017252121 0.1433023 -0.053656828
000130 66 93 cf bd 87 72 55 3d df e9 ce 3d 83 4c ba ba
       -0.10135536 0.052111175 0.10103201 -0.0014213476
000140 cb ea b0 3d 96 d8 f2 3d 3b e6 07 be 0a 1f 5d be
       0.08638533 0.11857717 -0.1327142 -0.21593872
000150 a4 6e 21 bc 28 5c 51 3d b9 87 d8 bd da 25 e0 bd
       -0.009853039 0.051113278 -0.10572762 -0.109447196
000160 ad e6 1c 3c 6c 99 cd 39 e7 51 28 3d 7a 13 87 bd
       0.009576482 0.00039214955 0.041093733 -0.06595512
000170 c1 13 46 3d f9 88 06 3e a8 5e ad bd 18 d5 89 3d
       0.048358683 0.13138188 -0.0846532 0.067300975
000180 28 5e 54 be 03 c0 49 3d 66 7f 14 3d 12 22 23 3e
       -0.20739043 0.049255382 0.03625431 0.15930966
000190 78 0c 61 3c 9f f4 1c 3c 5b 47 1a 3e 7e b4 ac bd
       0.013735883 0.009579807 0.15066282 -0.08432864
0001a0 87 fd 8d 3d 1c 7c bc 3d ec 3c e0 3d 17 b7 90 bc
       0.06933122 0.092033595 0.1094912 -0.017665429
0001b0 c4 4f 85 3e fa 09 87 3d 0f a1 62 3a 2e 51 ce 3c
       0.2603742 0.065937 0.00086452154 0.025185194
0001c0 ed 6f d3 bd e1 be d4 3d 37 78 2e 3e b1 4e 85 3d
       -0.103240825 0.1038797 0.17038046 0.0650915
0001d0 fe e3 a5 3d 60 29 d7 3b d5 e0 8f 3d a4 fe 89 bd
       0.08100127 0.0065662116 0.07025305 -0.06738022
0001e0 4e de b2 3d d5 4b 93 3d 1d 82 e8 bc 8f b8 80 bd
       0.087338075 0.07192198 -0.028382355 -0.06285202
0001f0 79 8a cf 3c 2e ce 3d 3d 71 4f 0a bd 7e 0c 78 bd
       0.025334584 0.046339206 -0.033767167 -0.06055879
000200 5f 3a c1 bd 5c e1 8b bd 67 a3 48 bd b5 e1 c5 bd
       -0.094349615 -0.06830093 -0.048983958 -0.09662191
000210 76 93 d4 bd 69 b5 5d 3d 4e 68 09 3d 76 ce c7 bd
       -0.103796884 0.054128084 0.03354674 -0.09756176
000220 d0 f2 95 bd a8 ad 9c bc ef f7 2e be 42 47 17 bc
       -0.073217034 -0.019125775 -0.17086767 -0.009233298
000230 bd fa e5 3d 06 98 7c 3d 8f 05 87 bc 1b 57 99 bd
       0.11229465 0.06166842 -0.016482143 -0.07487317
000240 c3 57 d7 3c fe a4 62 3e 98 24 d1 bc 24 42 b8 3d
       0.026286965 0.22133252 -0.025530145 0.0899699
000250 9c 4f 92 3d 96 07 26 3d 40 0a c6 3c 92 12 ea 3c
       0.071440905 0.04053458 0.02417481 0.028573308
000260 68 ab 6f bd 39 4c 97 3d 69 b2 8b bc 0f 7a f9 3c
       -0.058513075 0.07387585 -0.017052846 0.03045371
000270 a7 ac da bd 19 6b e9 3d 8c ac 78 3c 30 14 8f bd
       -0.10677462 0.113973804 0.015177857 -0.06986272
000280 6b f1 84 bc cf 3f 00 be 09 d7 8b bd 39 8b bb bc
       -0.016228398 -0.12524341 -0.06828124 -0.022893535
000290 bc 3b 7a 3d 79 48 be bd f6 75 21 3c 27 98 83 bc
       0.061092123 -0.09291167 0.009854784 -0.016063763
0002a0 38 7d 96 3d 2b 92 61 bd 9c 8d 3c 3d 44 02 81 3d
       0.07348102 -0.055071037 0.046033487 0.0629926
0002b0 70 69 d9 bd 91 b8 3d 3d 85 ed 43 bd 27 68 77 3d
       -0.10615814 0.046318594 -0.04783394 0.06040206
0002c0 6a 34 d5 bd 0c e3 85 be aa 11 36 3a 90 15 e0 3d
       -0.10410388 -0.26149786 0.0006945381 0.10941613
0002d0 e8 06 92 3d 31 00 1d bd d7 00 d1 3d 85 80 53 3d
       0.071302235 -0.03833026 0.10205238 0.051636238
0002e0 c6 2a fb bd 7b c5 df 3b 5e 14 f6 3c b4 af 07 bd
       -0.12264018 0.0068289614 0.030039009 -0.033126548
0002f0 53 78 e1 bd 09 de 8a 3d 72 12 01 bb e3 f5 66 3d
       -0.11009278 0.06780631 -0.0019694832 0.05638684
000300 a9 17 31 3e c0 d1 2e bd 2f 09 92 3c 61 2a 47 3d
       0.17294182 -0.042680502 0.017826645 0.0486244
000310 f0 66 3f bd b3 44 8c 3c b8 c0 e5 3d fa 7a 22 3c
       -0.04672903 0.017122602 0.11218399 0.009917015
000320 4d a3 c3 bb fb 08 a4 3c 24 a1 4d 3d a7 9e 16 bd
       -0.0059703947 0.020023813 0.050202504 -0.036772396
000330 ed 4b b1 3c 35 45 71 bd 7b 65 8c 3d 82 98 01 be
       0.02164265 -0.05890389 0.06855293 -0.12655833
000340 30 73 c3 bd 69 2f eb 3c 71 6a 97 3b e1 a8 a2 bc
       -0.09543455 0.02870913 0.004620843 -0.019855918
000350 81 7b a4 bd d3 58 a1 bb 74 48 2c be 98 5b 79 bc
       -0.08031369 -0.0049239188 -0.16824514 -0.015219592
000360 4d 1e 38 3c d2 3c e1 3d b0 ad 17 be 94 47 dc bc
       0.011237693 0.10997929 -0.1481235 -0.0268896
000370 9e 39 f5 bd a1 b3 d9 bd ae 4b 3c bc 18 6b 3b be
       -0.1197388 -0.106299646 -0.011492653 -0.18302572
000380 6f d4 d4 3c e2 03 56 3d 1d 7b 69 bd 43 3a 8b 3c
       0.025980202 0.052249797 -0.057002176 0.016995555
000390 24 4c 24 3d d4 a3 8c 3d a4 85 d4 3d 7d 80 ab bd
       0.040111676 0.06867185 0.103770524 -0.083741166
0003a0 7f a2 1c be 36 e7 6b 3c 46 bb ff bd 01 1d d8 bd
       -0.15296362 0.014398387 -0.124868914 -0.10552407
0003b0 3a 9f 91 3c d3 ca 39 bd 1b fd 10 be 18 ac 2c 3d
       0.01777612 -0.045359444 -0.14159052 0.04215631
0003c0 9f 6b 2a 3e 39 c5 d8 bd 8b 42 4c bd 65 a7 88 3e
       0.16642617 -0.10584492 -0.049868148 0.26690212
0003d0 cc 0c 4e be 1e 80 45 bd dc 7a 34 bc a3 50 d1 bd
       -0.20122069 -0.048217885 -0.01101562 -0.10220458
0003e0 9a 55 15 bc 1e 62 83 be 3b 74 b1 bd b0 a4 4b be
       -0.009114647 -0.25660795 -0.08664747 -0.19887042
0003f0 97 b1 55 3d 95 b9 cf 3d 12 0d 0a be c7 87 1c be
       0.052171316 0.10142819 -0.13481548 -0.1528617

net.6.bias f4 [200]
000000 39 b5 ae 3d 73 55 13 be 3e 81 87 be 79 4e bd 3c
       0.08530659 -0.14388065 -0.2646579 0.023108708
000010 9f d2 ae be 3a c0 51 be 7e fd 0d be c9 c1 4d 3d
       -0.34145066 -0.20483485 -0.13866231 0.050233636
000020 90 90 29 be 59 a6 00 3e 18 0b ec 3d 75 39 c0 bd
       -0.16559052 0.12563457 0.115255535 -0.09385959
000030 a3 88 2e be 96 55 28 be e9 ba 7d 3d a0 f2 98 b9
       -0.1704431 -0.16438898 0.06194583 -0.0002917247
000040 46 c8 4a be c2 46 4a 3d f3 0c 45 be 18 fc 97 3d
       -0.19802961 0.049383886 -0.19243221 0.0742113
000050 59 18 7b 3c d5 36 24 be c4 83 6f bd eb e1 d1 3d
       0.015325629 -0.16036542 -0.05847527 0.102481686
000060 9d 38 ef 3d 1a 87 35 3e ee 02 b1 bd f6 96 9e be
       0.1168072 0.17727318 -0.08643137 -0.3097455
000070 89 d0 5e be 09 4f fe 3d 76 a7 0f 3e 55 dc d6 bd
       -0.21759237 0.124174185 0.14028725 -0.10491244
000080 8a 4a 12 3c af 8f 81 bd 54 99 05 3e 98 d0 b3 3d
       0.008928904 -0.063262336 0.13046771 0.087800205
000090 29 7d 7e 3d c4 4d bd 3d cd 8e 21 3d 9c fe 8b be
       0.06213108 0.09243348 0.039442826 -0.2734269
0000a0 00 8e 77 3d c8 aa 98 39 4d 0e 4c 3d 9b ed 5e bd
       0.060438156 0.0002911894 0.049818326 -0.054425817
0000b0 91 19 d0 3d e1 5b e6 bd cd dc 4f be 8b 74 b2 bd
       0.101611264 -0.11247993 -0.20299073 -0.08713635
0000c0 99 e6 ea bd 41 19 a8 3e da 59 a1 3d 84 dc 14 be
       -0.11469764 0.32831767 0.07878466 -0.14537245
0000d0 a7 f3 33 38 72 cd 36 be 93 c4 b3 bd 5b 3f 4e be
       4.2903845e-05 -0.17851809 -0.08777728 -0.20141356
0000e0 99 7f 55 be 96 63 bf 3d 13 43 f9 bd e1 7e 3f 3e
       -0.20849456 0.093451664 -0.121709965 0.18700744
0000f0 4f b1 0d be ed 78 4e be e3 fb 21 be a0 35 42 3a
       -0.13837169 -0.20163317 -0.15818743 0.00074085034
000100 4c 1f a1 3d 07 ad a4 bb 0f e0 92 3d 32 7d 88 3d
       0.078672975 -0.0050255093 0.07171642 0.06664504
000110 0e f9 f3 3d f7 d1 c3 3c 8c be 1a 3d 1f e8 9b be
       0.11912738 0.02390383 0.037779376 -0.30450532
000120 71 a2 bb 3a cf fa 99 3d 65 1e 00 be 2d a8 bc 3d
       0.0014315379 0.07518541 -0.12511595 0.092117645
000130 85 d3 82 3d 5e dc 45 3e e7 29 1f be 30 ac 04 3d
       0.063880004 0.19322345 -0.15543328 0.032390773
000140 eb aa df 3d 82 0a 8f 3d dc 6c 86 3d f3 0e 0b 3e
       0.10921272 0.06984426 0.06563732 0.13579921
000150 17 59 87 3d 04 31 b8 3d bd 1e ff bd 3e ea 21 be
       0.066087894 0.08993724 -0.12457035 -0.15812013
000160 4d 8b 4a 3e de 79 52 be c0 a1 61 bd fc cb 08 3a
       0.19779702 -0.20554301 -0.055085897 0.00052183843
000170 b7 f1 27 3e b5 9f d8 3d d6 66 2a 3e 7c 86 fe bd
       0.164008 0.10577337 0.16640791 -0.124279946
000180 f8 42 2a be 3d 80 9a 3a 38 ff c6 3d b1 9b 11 be
       -0.16627109 0.0011787486 0.09716648 -0.14219548
000190 68 99 96 be dc 87 23 be 1b 42 0e 3e 16 ab 8a ba
       -0.29413915 -0.15969795 0.13892405 -0.0010579552
0001a0 6c af 84 be d2 08 e6 3d 2d f5 93 3d 4f be 39 3d
       -0.25915086 0.11232151 0.07224498 0.045347508
0001b0 d1 06 bb bd a6 1d 1a be 4a 38 83 bd 6d 94 14 3e
       -0.091321595 -0.15050372 -0.06407221 0.14509745
0001c0 73 0c 82 3d 19 7e 85 3d 63 3d 4d be ca bd 5b 3d
       0.06350031 0.06518192 -0.20042948 0.053647794
0001d0 e8 ee aa 3d 0c ff 5e be 5b 99 41 be e1 7e 12 be
       0.08346349 -0.2177698 -0.18906157 -0.14306213
0001e0 05 d0 8f 3c 27 a6 1b be 4d 14 57 be d0 17 d5 3d
       0.017555246 -0.15200101 -0.21003838 0.104049325
0001f0 31 aa ff 3c 25 cd 4b ba cc 34 3a be 68 b8 7c bd
       0.031209083 -0.00077744044 -0.18184203 -0.0616993
000200 f1 5c ca 3d 42 6a c0 3d 53 95 8d 3d 40 e8 3b 3e
       0.098810084 0.09395267 0.06913247 0.18350315
000210 4b 1d 7d be cd 1d 4c 3d 5b d8 42 3b cf 75 3e be
       -0.24718206 0.049833108 0.0029731009 -0.18599628
000220 6c 1f 44 3d f6 5c 8e 3d 6c 89 86 3c 74 c4 36 be
       0.04788153 0.06951325 0.01642295 -0.17848378
000230 55 99 d9 3d ed 37 89 3a 83 f6 37 be fc 71 a6 bd
       0.10624949 0.0010468938 -0.1796513 -0.081272095
000240 81 09 07 3d 6f bb 17 be db 54 96 3b 58 bb 47 be
       0.032968048 -0.14817594 0.0045877523 -0.1950506
000250 a3 9f 8a 3b 48 d3 11 be 99 62 0c be 05 b1 84 3d
       0.004230456 -0.14240754 -0.13709487 0.06479076
000260 9c fa 37 be 14 c4 d3 3d b5 7f 14 3e 2c e2 05 3d
       -0.17966694 0.10340133 0.14501841 0.032686397
000270 00 f0 21 3e 52 13 97 38 7e 06 d8 bd d0 78 75 bd
       0.15814209 7.20384e-05 -0.10548113 -0.05992967
000280 cb 6f b7 3d cc c3 21 3e 07 5e 27 3d 0c 6c 59 be
       0.0895687 0.15797347 0.040861156 -0.21232623
000290 8a bc 36 be 46 2a 5d 3d f5 e2 3b be 0f fc 01 be
       -0.1784536 0.053995393 -0.18348296 -0.12693809
0002a0 00 83 8d be 21 c1 32 3c 7d 97 de bd 30 76 2b be
       -0.27639008 0.010910303 -0.10868738 -0.16744304
0002b0 6e 5a 8a 3d 9e 6c 99 3d 24 5f 12 be 88 95 00 3e
       0.06755529 0.0749142 -0.14294106 0.12557042
0002c0 66 4e ce 3e 4e 75 67 bd f4 ed 48 be 13 2b e0 3e
       0.40294188 -0.056508355 -0.19622022 0.43782863
0002d0 cc f0 c7 bd fd 7c fd 3d 6f 81 dd 3d 2a ae 3e be
       -0.09762725 0.12377355 0.10815703 -0.18621126
0002e0 ed 80 e9 3d e2 1a 9b 3d 5b ef 3d 3d 71 fe 8e 3d
       0.11401544 0.07573487 0.046370845 0.069821246
0002f0 da 20 32 be 2c 3c 26 be a1 d7 8f bd a9 e4 cf bd
       -0.17395344 -0.16233891 -0.0702355 -0.10151035
000300 19 6a 08 3e 3c 6b 89 3d 86 cd 12 3e b9 f2 2f be
       0.13321723 0.067099065 0.14336213 -0.17182435
000310 ee bf 14 be ae c5 67 bd 24 6b 57 3d 99 2e ee 3e
       -0.1452634 -0.056585006 0.05259241 0.46519926

net.9.weight f4 [4, 200]
000000 9b fb aa 3a 7f 7f 4f bd 92 02 b4 bc 18 47 81 3a
       0.0013044955 -0.0506587 -0.021973882 0.0009863107
000010 37 b1 e9 3a eb c4 d9 bc a7 db 7b bc 0c 76 06 39
       0.0017829303 -0.026583156 -0.015372193 0.00012823212
000020 74 b8 28 3d 34 a4 50 3a 12 33 1e bb 36 d3 22 3d
       0.041191533 0.00079590385 -0.0024139327 0.039752208
000030 3e d0 de bd 0f 6c d2 bc 51 d2 05 3a 15 45 0e ba
       -0.10879563 -0.025686292 0.0005104887 -0.0005427164
000040 ed 7a 23 bc 55 6c 37 bd b3 fa b8 3c 91 b6 ce bc
       -0.009978038 -0.044781048 0.02258048 -0.025233539
000050 c7 ec c8 3b db 7c dc bb 36 22 a4 3c c8 cc d4 3b
       0.0061317417 -0.006728751 0.020035844 0.0064941384
000060 1c 3e 91 b9 28 90 ba 3b c0 74 69 bb 72 67 db bc
       -0.0002770283 0.0056934543 -0.0035622567 -0.026782725
000070 df 58 14 bc 63 74 a8 ba 86 e7 1d bb 96 0d 97 3d
       -0.009054392 -0.0012852069 -0.0024094298 0.07375638
000080 37 80 ed 3a 55 15 6a bc 09 5a 47 bb 8f 0b d4 b9
       0.0018119876 -0.0142873125 -0.0030418655 -0.00040444403
000090 b0 6e 0d 3b 46 64 a4 bc 86 9d ef ba 5a 80 c3 bc
       0.0021580867 -0.020067345 -0.0018281199 -0.023864914
0000a0 3c 3b 8e 3a 69 d5 39 3b 02 a8 6e 3d ff 99 89 bc
       0.0010851393 0.0028355962 0.058265693 -0.016797064
0000b0 22 38 04 bc 39 d9 19 bd 68 f6 5e 3b 4c 2f 9a 3c
       -0.008070024 -0.037560675 0.0034021381 0.018821381
0000c0 db 1e 93 bc 80 91 b3 bb d1 dc 98 bc 6e d0 09 3c
       -0.017959049 -0.0054799914 -0.018659981 0.00841151
0000d0 f9 c1 12 3a e9 2c 81 3c 77 0f e9 3c 0f 4d 49 3d
       0.0005598362 0.015768485 0.028449757 0.049145754
0000e0 ac be e1 3c c2 8d 8a b8 79 72 f7 3b 35 b9 27 3b
       0.02755674 -6.606757e-05 0.007551488 0.002559257
0000f0 a2 61 00 bd 81 26 13 3d a0 d4 56 3c 1b 54 2c 3a
       -0.03134311 0.035925392 0.013112217 0.0006573812
000100 55 10 d2 bc 0e 6a a6 b8 25 bc 26 3c 10 ec 22 3a
       -0.025642553 -7.935251e-05 0.010176693 0.00062149856
000110 f9 0c ff ba df 56 07 3b 6f ec e0 b8 fe de 1b bd
       -0.0019458822 0.0020651144 -0.000107251915 -0.03805446
000120 55 68 a5 3a 96 12 40 bd f6 f6 7f 3d db 48 2b 3c
       0.0012619594 -0.046892725 0.06249138 0.010454382
000130 d3 15 bf bc 00 1f 88 3b 53 65 12 3c 97 79 64 b9
       -0.023325836 0.004154086 0.00893529 -0.0002178907
000140 86 23 1b 39 d7 da 42 bc 8d 53 d2 39 b4 7f d6 3b
       0.00014795185 -0.011892996 0.00040116571 0.006545985
000150 79 34 e4 3c f0 38 43 39 9a e8 7e 3d b2 3c 25 bd
       0.027857052 0.0001861786 0.062233545 -0.040341087
000160 6c 08 e7 bd 14 29 99 3c 3f cf e7 bd 29 c7 c2 3a
       -0.11280903 0.018696345 -0.11318826 0.001486038
000170 17 e4 f5 b8 0d 1f 37 bc e0 f5 f0 bb 6a 95 54 3d
       -0.000117249954 -0.011176837 -0.0073535293 0.051900305
000180 70 14 a6 bc e1 a5 13 3b 53 3f de bc e4 6b 8b 3d
       -0.020273417 0.0022529291 -0.027129805 0.06807688
000190 2d 85 4e bc 61 f8 a3 3d 44 7c 84 3b ae 82 44 3b
       -0.012604994 0.08006359 0.004043134 0.0029985118
0001a0 fa 2b 6b bc 3c 5e ca b9 99 8f 82 ba 1e 0c 11 3a
       -0.014353747 -0.00038598652 -0.0009961008 0.00055331166
0001b0 7a 5b 1b bc 5f 5c 86 3c bf 75 d1 3c 41 7b 91 3b
       -0.009482259 0.016401468 0.025568841 0.004439742
0001c0 f5 bf ef 3a 4d f0 d4 bb 51 88 90 3c 4c c4 07 3d
       0.0018291461 -0.0064983726 0.017643126 0.033146188
0001d0 30 c7 03 bd bc 66 4d 3c f2 9b 63 3a 75 81 78 bd
       -0.032172382 0.012536701 0.00086826005 -0.060670335
0001e0 b0 62 9d ba 78 73 b7 bc 03 af cb bc 48 b8 16 3c
       -0.001200756 -0.022393927 -0.024863726 0.0091992095
0001f0 d9 5c af bc 19 1e 7c 3b 2d 46 2d bd b0 a7 38 bd
       -0.021406578 0.0038470088 -0.042303253 -0.045081794
000200 07 14 a2 ba 04 ee 61 bb 33 b2 77 bc 21 02 fc 3a
       -0.0012365588 -0.0034474144 -0.01511817 0.0019226709
000210 c9 71 bd bc 80 32 23 3b 8e 03 f3 3a fa 9f c6 3c
       -0.023125546 0.0024901927 0.0018540488 0.024246205
000220 82 fe 18 b7 d2 32 9a ba cc fd 54 ba 38 90 63 3d
       -9.119163e-06 -0.0011764413 -0.0008124977 0.05555746
000230 2d 32 38 3c a5 50 1e 3b cb 01 00 bd c3 22 5d bc
       0.011242432 0.0024156955 -0.03125171 -0.013497057
000240 af e8 4d ba 72 5d 3f 3d 84 19 e4 3a dc b7 fd 3b
       -0.0007854802 0.046719976 0.0017402624 0.007742865
000250 84 af a0 39 0a 78 ba bd 59 a3 a5 3c f4 24 d1 bc
       0.00030648347 -0.09104927 0.020219492 -0.025530316
000260 a9 a7 26 3d 00 91 86 b9 d8 4b 92 3b 87 c7 2a bd
       0.040687237 -0.00025666505 0.0044646077 -0.04169419
000270 fc ca 53 bb d2 36 92 3b 77 dd e1 bd e0 8e 0d 3d
       -0.0032317033 0.0044621015 -0.11028569 0.034560084
000280 89 21 b2 ba e2 fc 00 bb 44 c6 a4 bb 50 a8 0c bc
       -0.0013590317 -0.001968198 -0.005028518 -0.008585051
000290 7d fd e1 bd 5d 91 a5 bb 2a 36 8d 3d 7d 41 29 3c
       -0.11034677 -0.005052729 0.068950966 0.010330555
0002a0 1b 26 64 bc ab d0 a9 3a 83 8b 9d 3b d6 70 74 bd
       -0.013925101 0.0012955865 0.004807891 -0.05967792
0002b0 5b 1d 47 bc c2 b1 1f b9 50 e2 03 bd d6 8b 17 ba
       -0.012152995 -0.00015229642 -0.03219825 -0.000578103
0002c0 4e 43 fe bd 1b 1c 90 bc a9 f6 9a 3c a2 c9 6e bb
       -0.12415181 -0.017591527 0.018916445 -0.00364361
0002d0 86 77 8d bc 0c 7a 19 bc 39 46 ff bc 0c 66 25 3d
       -0.017268907 -0.009367477 -0.031161414 0.040380523
0002e0 2c 16 a4 3a f6 30 98 bb 03 e5 20 bd 10 9a 04 bc
       0.0012518815 -0.0046445085 -0.039280903 -0.008093372
0002f0 19 85 91 bc 49 51 32 3d f7 51 26 3d 35 34 c3 bc
       -0.017763661 0.04353455 0.04060551 -0.023828605
000300 69 f0 11 bc 63 e0 4d 3c a4 72 6b ba 0f b1 3b bd
       -0.008907416 0.012565705 -0.00089816214 -0.045823153
000310 85 ad 36 bd e2 e1 e9 3c 02 b9 3b bc 26 e0 56 be
       -0.044599075 0.028550092 -0.0114576835 -0.20983943
000320 38 42 16 3c 25 5b 4f 3d 52 a6 70 be f8 de 6e 3c
       0.009171061 0.05062403 -0.23500946 0.014579527
000330 bc 73 70 be 02 b6 a0 3c ea 7c b8 3d 65 be 5f 3c
       -0.23481649 0.019618038 0.090082005 0.013656233
000340 e6 5d 2f bd 75 38 f7 3b 17 ed 1c bd 6e d5 c7 bb
       -0.042814158 0.007544572 -0.038312044 -0.006098441
000350 fe 01 80 bb fe e6 03 bd 90 0d 24 3c e0 bb c7 3c
       -0.0039064875 -0.032202713 0.010012999 0.024381578
000360 2b fa 77 3c 72 d8 d7 bd e4 f6 79 3d a2 17 67 bd
       0.015135328 -0.105393305 0.06102647 -0.056419022
000370 1d bd ce 3c 92 48 3e bd 41 91 a0 bd 12 78 5c bd
       0.02523666 -0.046455927 -0.07840205 -0.053825445
000380 46 e3 b1 3b 9a e0 9b bc b0 20 db 3b df 74 5d be
       0.0054287044 -0.019027997 0.0066872463 -0.21626614
000390 ce 90 4f be 03 94 3a 3d d9 e9 fc bc aa 16 86 3d
       -0.20270082 0.04555131 -0.030873226 0.065472916
0003a0 56 4f c1 3c ad 31 9e bc a3 f3 39 bd bb 56 1c 3c
       0.0235974 -0.019310797 -0.045398366 0.0095421625
0003b0 1a f1 43 3c 2b 1b 2b bd 18 11 71 3c 66 90 7d be
       0.011959339 -0.041773956 0.014713548 -0.24762115
0003c0 f1 36 2d 3c 9d 90 dc 3c 83 15 c8 bd 8a 4d be bc
       0.010572181 0.026924426 -0.09769728 -0.023230333
0003d0 97 51 79 bd 94 1d 14 bc f0 35 2d 3d 92 c2 13 bd
       -0.060868826 -0.009040255 0.042287767 -0.03607423
0003e0 36 13 0f 3d 67 8a b8 bd a7 cb 3c 3c 39 64 de 3c
       0.03493043 -0.09010773 0.011523164 0.0271474
0003f0 96 7a 07 3d 71 91 e6 3c 77 3c 9a 3d 20 fa 07 3d
       0.03307589 0.028145524 0.07531064 0.033197522

net.9.bias f4 [4]
000000 20 e9 e5 3e 2c 75 b0 3e 89 c5 0b 3f d4 6d 26 3f
       0.44904423 0.34464395 0.5459829 0.65011334
